app/services/mahjong_ai/models/v0.1.pth (torch, 144776 bytes, 6 tensors)

network.0.weight f4 [128, 206]
-11.194105 7.9234977 5.196171 5.547782 5.3860908 5.714358 4.5914154 6.659113
5.968719 8.9567585 8.367523 8.310543 4.192156 5.607546 7.993521 7.503769
8.984215 8.02046 9.195347 9.040049 7.6965218 9.123053 7.6506157 9.090008
6.6296377 8.934135 7.793175 5.699218 6.717487 6.292559 8.429798 7.2836666
7.072513 7.6306434 8.751145 0.9537277 0.93202376 0.9644577 0.9855726 0.95488715
1.0255013 1.0493252 0.9683088 1.061002 0.9506213 0.9395525 1.0134625 0.93890816
1.0184243 0.96424335 0.9497578 -0.67064226 0.3500609 -1.182284 -0.32412997 0.39454615
1.4924624 2.6029463 2.1694286 2.1887898 2.0607755 1.2368147 0.96112335 -1.0022055
-0.5395874 2.1208954 -0.76764804 0.12847249 0.93848586 1.0212183 1.0100956 1.0392144
1.0335684 0.9785888 1.0140495 1.267373 -1.4156587 11.403289 0.9373746 0.9412436
0.9587203 0.9673448 0.99499595 0.9338567 0.97723126 0.95456654 0.9719139 1.0098109
0.97425765 1.009912 1.051553 0.97063416 0.94820124 1.0221324 0.5696868 0.87226117
-0.31801638 1.1640491 2.878212 0.6793442 2.4808452 -0.07318785 0.7454611 -0.54943734
-0.69741327 0.99336576 0.29172537 0.20503558 -0.81955194 -2.742567 -1.2951572 0.71441364
0.9619407 1.0463026 1.0137734 0.96756387 0.9766832 0.9491827 5.408369 0.9758802
0.95625544 0.93591976 0.9836918 0.95821 0.93782246 1.0274367 0.9301063 0.93004775
1.0030822 1.0243824 1.0556822 0.94233215 0.9901158 1.0010269 1.0275643 -1.2213718
0.14827886 1.0645785 -0.69465715 -0.7790323 -0.33633223 1.2191926 0.80171543 -0.3849419
-0.67663807 0.23457024 -0.41161034 -0.33762795 -2.4333386 -0.47440037 -0.48058212 -1.157998
0.9677316 0.96393853 0.92999315 0.92589283 0.9805555 1.012965 0.96917635 4.007225
0.9960392 1.0303779 1.0029297 0.99631786 0.9783943 1.0183651 1.0380411 0.9944738
1.0313687 1.0515351 0.95555574 0.9508847 1.0228302 0.9505316 1.0488114 0.9626017
-0.6647014 0.38679504 0.15951869 -0.19016618 1.2699997 1.3673481 2.1615357 -0.85201156
0.520948 0.41583854 -0.51132315 0.746131 0.31057906 -0.13745032 -1.2439764 0.05362499
-0.9171972 0.4396597 1.044368 1.0263755 0.9765045 0.97035295 0.9614407 0.9903475
-0.535371 -2.2606893 1.0242469 0.9539979 0.945311 0.98744637 0.655673 -0.22186235
-0.07848889 -0.3962869 -0.11188013 -0.26186377 -0.03280996 0.34750828 -0.10575416 -0.1676154
0.045198325 0.0919023 0.10592283 0.06550023 0.12765977 0.17011002 -0.18226105 -0.18899246
0.11378653 -0.06350036 -0.36342967 -0.066772446 -0.12978947 -0.34833062 -0.3204669 -0.01569156
-0.12269799 -0.009626284 -0.05460399 0.23658474 0.034590114 0.06413392 -0.018899124 0.083721794
0.12898992 0.091184996 0.07705289 0.07586515 -0.012950371 0.08414445 0.114661455 0.021335082
0.034022372 -0.008195182 0.103275895 0.011844784 0.06441125 0.0103475265 0.059232686 -0.020054823
00000000: 0e1b 33c1 4b8d fd40 0847 a640 6e87 b140
00000010: db5a ac40 05dc b640 e0ec 9240 7417 d540
00000020: bfff be40 e24e 0f41 60e1 0541 fcf7 0441
00000030: 2426 8640 0471 b340 edca ff40 e01e f040
00000040: 58bf 0f41 ce53 0041 2420 1341 0aa4 1041
00000050: e849 f640 06f8 1141 d8d1 f440 ac70 1141
00000060: fe25 d440 38f2 0e41 b161 f940 fe5f b640
00000070: a7f5 d640 a55c c940 74e0 0641 cc13 e940
00000080: 0752 e240 3b2e f440 b104 0c41 8027 743f
00000090: 1c99 6e3f b3e6 763f 7c4e 7c3f 7c73 743f
000000a0: a043 833f 4a50 863f 16e3 773f eace 873f
000000b0: eb5b 733f 8386 703f 24b9 813f 495c 703f
000000c0: ba5b 823f a7d8 763f 5423 733f 36af 2bbf
000000d0: 2f3b b33e 1555 97bf 5df4 a5be f401 ca3e
000000e0: 0209 bf3f ac96 2640 ebd7 0a40 2215 0c40
000000f0: bfe3 0340 f24f 9e3f 2e0c 763f 4548 80bf
00000100: 6622 0abf c0bc 0740 9584 44bf 4b8e 033e
00000110: 9c40 703f 48b7 823f d04a 813f fa04 853f
00000120: f84b 843f cc84 7a3f 60cc 813f 4739 a23f
00000130: 4e34 b5bf df73 3641 c8f7 6f3f 57f5 703f
00000140: b26e 753f e9a3 773f 0eb8 7e3f 3c11 6f3f
00000150: d42b 7a3f 795e 743f 59cf 783f 7c41 813f
00000160: f368 793f cc44 813f 4a99 863f 7b7b 783f
00000170: 51bd 723f 3cd5 823f fed6 113f 824c 5f3f
00000180: 0bd3 a2be 90ff 943f a034 3840 80e9 2d3f
00000190: 2bc6 1e40 83e3 95bd 8ad6 3e3f eda7 0cbf
000001a0: ad89 32bf 384d 7e3f 075d 953e d9f4 513e
000001b0: 28ce 51bf 3886 2fc0 b6c7 a5bf d0e3 363f
000001c0: bf41 763f 3eed 853f 54c3 813f 44b2 773f
000001d0: e907 7a3f a3fd 723f 5c11 ad40 49d3 793f
000001e0: 28cd 743f 7098 6f3f 3ad3 7b3f 404d 753f
000001f0: 2215 703f 0c83 833f 721b 6e3f 9c17 6e3f
00000200: ff64 803f f61e 833f 9820 873f ae3c 713f
00000210: 3b78 7d3f a621 803f 3a87 833f e955 9cbf
00000220: 6ad6 173e 1c44 883f 0dd5 31bf a96e 47bf
00000230: bd33 acbe 810e 9c3f 393d 4d3f 1b17 c5be
00000240: 2738 2dbf 2e33 703e 97be d2be 92dd acbe
00000250: d2bb 1bc0 9be4 f2be dc0e f6be 4739 94bf
00000260: 42bd 773f adc4 763f 0814 6e3f 5007 6d3f
00000270: af05 7b3f d6a8 813f f11b 783f 303b 8040
00000280: 6dfc 7e3f 6ce3 833f 0060 803f b00e 7f3f
00000290: 0d78 7a3f ca59 823f 88de 843f d695 7e3f
000002a0: e403 843f b498 863f 4d9f 743f 2e6d 733f
000002b0: 1aec 823f 0a56 733f 743f 863f 116d 763f
000002c0: df29 2abf 000a c63e de58 233e ecba 42be
000002d0: 5a8f a23f 4305 af3f 9a56 0a40 6e1d 5abf
000002e0: d95c 053f cae8 d43e 13e6 02bf 7102 3f3f
000002f0: 3804 9f3e c7bf 0cbe 9e3a 9fbf e1a5 5b3d
00000300: 70cd 6abf 141b e13e daad 853f 4660 833f
00000310: 33fc 793f 0d69 783f fa20 763f 6a87 7d3f
00000320: 130e 09bf 22af 10c0 861a 833f 3539 743f
00000330: e7ff 713f 49c9 7c3f 30da 273f e22f 63be
00000340: c8be a0bd 1ee6 cabe 6921 e5bd 0213 86be
00000350: bd63 06bd 9bec b13e a395 d8bd 5fa3 2bbe
00000360: e121 393d 4637 bc3d 12ee d83d fc24 863d
00000370: 3eb9 023e 5231 2e3e a4a2 3abe 3d87 41be
00000380: ea08 e93d 7a0c 82bd 7413 babe febf 88bd
00000390: 88e7 04be 6458 b2be 3d14 a4be 968b 80bc
000003a0: 1549 fbbd 90b7 1dbc 6fa8 5fbd 4543 723e
000003b0: 5dae 0d3d a558 833d 56d2 9abc 5576 ab3d
000003c0: ef15 043e 33bf ba3d e8cd 9d3d 305f 9b3d
000003d0: cb2d 54bc ed53 ac3d a0d3 ea3d e9c6 ae3c
000003e0: 0b5b 0b3d 1645 06bc 5082 d33d a010 423c
000003f0: 0cea 833d ac88 293c f99d 723d 034a a4bc

network.0.bias f4 [128]
-0.95273066 -0.017024146 -0.027824046 0.005155604 0.020621581 -0.10230596 -0.061152775 -0.05830628
0.04630776 -0.1366151 -0.109976575 -0.040085923 -0.17047213 -0.07504641 -0.05187035 0.18940274
-0.110286966 -0.010669388 -0.1548963 0.041522183 -0.06277228 0.03935596 0.027892035 0.022001987
-0.21657138 -0.05965263 -0.08049382 0.012984744 -0.06256217 -0.07226865 -0.21361256 -0.07603022
-1.3828073 -0.011790646 -0.49175355 -0.31747243 -0.12857826 -0.026979705 -0.23665673 -0.07102286
-0.116375245 -0.19573833 -0.14263234 -0.0884124 0.48698065 0.012676391 -0.09184074 -0.094121344
-0.01282007 -0.050473966 -0.13790695 -0.12784483 -0.3873479 -0.074666075 -0.060786314 -0.110743694
-0.5690745 -0.075442456 0.17189719 -0.9827303 -0.075040214 -0.0650847 -0.050939742 0.06584839
-0.0604108 -0.27820143 -0.11487836 -0.022115035 -0.519843 -0.056860544 -0.07499694 -0.18238571
-0.109151706 -0.06837833 -0.10054468 -0.06336876 -0.08732167 -0.02220392 -0.072275594 -0.568331
-0.104184575 0.009622051 -0.10188993 -0.05930195 -0.020184353 -0.11382115 0.048786797 -0.14973879
-0.057918385 -0.38985217 -0.6008019 -0.016387828 -0.023573129 0.01930417 -0.023640333 -0.6120435
-0.017433317 -0.45504582 -0.05759022 -0.13218392 -0.15905747 0.5477895 -0.12311367 0.018446855
-0.06286945 0.06750081 -0.5172506 -0.035645694 -0.7578348 -0.023217868 -0.05966854 -0.0028233614
-0.03855866 -0.076872215 -0.08165977 -0.28330907 0.9482083 -0.1224784 -0.065260686 0.043122653
-0.78733695 -0.12197538 -0.081974395 0.015036629 -0.0058285613 0.017553663 -0.6204224 -0.017453533
00000000: 28e6 73bf 3976 8bbc 41ef e3bc 57f0 a83b
00000010: 97ee a83c ca85 d1bd 557b 7abd 91d2 6ebd
00000020: 35ad 3d3d d4e4 0bbe 663b e1bd 2331 24bd
00000030: 3f90 2ebe efb1 99bd 0176 54bd cbf2 413e
00000040: 22de e1bd a8ce 2ebc 239d 1ebe 2a13 2a3d
00000050: c18e 80bd b733 213d d67d e43c 833d b43c
00000060: e3c4 5dbe 5156 74bd f2d9 a4bd f7bd 543c
00000070: 9820 80bd 9601 94bd 40bd 5abe bbb5 9bbd
00000080: d4ff b0bf 8e2d 41bc 1fc7 fbbe bf8b a2be
00000090: 05aa 03be 8b04 ddbc 2456 72be 6f74 91bd
000000a0: 2556 eebd a16f 48be 360e 12be 8f11 b5bd
000000b0: 8755 f93e a3b0 4f3c ff16 bcbd b1c2 c0bd
000000c0: 450b 52bc cabd 4ebd 7b37 0dbe c1e9 02be
000000d0: 7752 c6be 87ea 98bd 12fb 78bd 97cd e2bd
000000e0: deae 11bf 9381 9abd d105 303e 3794 7bbf
000000f0: afae 99bd 214b 85bd 31a6 50bd 85db 863d
00000100: 5171 77bd 6b70 8ebe 5845 ebbd 972a b5bc
00000110: 6e14 05bf 9ae6 68bd ff97 99bd 52c3 3abe
00000120: ee8a dfbd f009 8cbd 5fea cdbd 7bc7 81bd
00000130: b4d5 b2bd ffe4 b5bc 3a05 94bd 247e 11bf
00000140: b95e d5bd cfa5 1d3c abab d0bd 9ae6 72bd
00000150: a859 a5bc 101b e9bd aad4 473d 2055 19be
00000160: d43b 6dbd b49a c7be 27ce 19bf c43f 86bc
00000170: 6f1c c1bc c723 9e3c 5fa9 c1bc e2ae 1cbf
00000180: 51d0 8ebc c4fb e8be b9e3 6bbd 395b 07be
00000190: f6df 22be ef3b 0c3f 0523 fcbd dc1d 973c
000001a0: b3c1 80bd dd3d 8a3d 896a 04bf 3801 12bd
000001b0: 7601 42bf 6633 bebc 0067 74bd 2508 39bb
000001c0: afef 1dbd 2e6f 9dbd 3d3d a7bd e30d 91be
000001d0: c7bd 723f f5d5 fabd 65a7 85bd 61a1 303d
000001e0: ea8e 49bf 3ace f9bd 31e2 a7bd 315c 763c
000001f0: 84fd bebb b3cc 8f3c 01d4 1ebf b6fa 8ebc

network.2.weight f4 [64, 128]
-0.1624745 0.06031174 -0.041104235 0.39366108 -0.123977594 0.12599501 -0.03672762 0.08572743
-0.075608924 0.027611924 0.23944913 -0.030589595 0.3968291 0.1645454 0.07159535 -0.96658933
-0.21755975 0.07677161 -0.94640005 0.062644556 -0.05354517 0.027653288 0.021313326 -0.25538778
0.004826903 0.028263103 0.1819907 -0.94709474 0.012647214 -0.2730789 -1.8184838 -0.036027577
0.16026758 0.026534412 -0.7363094 0.106092945 -0.3677961 -0.23966949 1.1464646 0.102124706
0.08846392 0.18002728 0.11013473 0.03941773 -0.36865985 0.04283876 0.18536896 -0.12241145
-0.00060199253 0.04331716 -0.6388175 0.10031547 -1.7966818 0.14379425 -0.11256335 0.07972926
-1.1033804 -0.694569 -3.2479298 -1.1446593 0.09900961 0.05990106 0.035123404 -3.0732167
-0.16180697 -0.17208274 0.06614139 -0.037830766 0.7187546 0.016192362 0.11940792 -0.32824203
0.29119152 0.05703733 0.16295101 0.019602198 -0.093974814 -0.07158482 0.053266943 -0.25227022
-0.5992624 -0.039809328 0.76030225 -0.0198735 -0.028696712 -0.12515707 0.0018458137 0.08830622
0.23673847 -0.4402847 -0.06059356 -0.04691978 -0.35947472 0.0731495 -0.031825818 -1.5407009
0.09720599 0.17987858 -0.04063037 -1.5759441 -0.022263061 0.29438046 -0.14429577 0.075010516
-0.041653354 0.086993486 0.2029455 0.09299921 -1.360495 0.08695297 -0.044908065 0.0010691303
0.11921064 0.05540811 0.080752864 -0.30490986 0.44827038 0.09723071 -0.0058052335 -0.084809914
-0.9916134 0.025486927 -0.12172758 0.24284108 0.048778612 0.093545794 -0.6093138 -0.5751616
-1.2147285 0.12541397 -0.08075358 0.03810377 -0.12057039 0.11060554 -0.029075945 0.052534524
-0.054310646 0.09047152 -0.24090306 -0.03602962 0.27455935 0.05820553 0.20884457 -0.3192505
-0.7222632 -0.08055551 0.62840277 0.063436024 0.026132448 -0.010359004 0.07248087 -1.2888427
0.27954608 0.037157785 -0.22382486 0.5898539 0.06539408 0.120474726 -1.1760497 0.021971874
1.0586897 -0.07876006 0.054339424 0.5762289 -0.57361686 -0.1341296 -0.7006262 0.18756923
0.09271844 -0.7642378 -0.04652601 0.07340494 -0.5596262 0.04479477 -0.17603461 -0.19292532
-0.17093682 0.2800524 -0.40637195 0.023369346 0.4415422 0.13081668 -0.1795568 0.21429378
-0.52927846 -0.579285 -0.9876127 0.21956144 0.14573283 0.09935393 0.16661856 -0.7612313
0.05741601 -0.1599638 0.000976722 -0.03368805 -0.08082999 0.024938233 -0.026799086 -0.2377672
0.12564355 -0.024295166 -0.5160373 -0.021359993 -0.51147264 0.037276313 0.10800462 0.4524163
-0.65440416 -0.029462336 -0.6031945 -0.13500163 -0.17538822 -0.009759523 0.022998633 0.069920994
0.19989504 -0.082005836 -0.2647301 -0.0677174 0.9358898 0.08715763 -0.042303685 -0.427833
0.0378637 -2.109483 0.07088221 0.39322934 -0.57785726 -1.5243422 0.056229986 -0.009703437
0.0251613 0.017906088 -0.11780722 0.11769996 -0.138717 -0.22285685 0.06315623 0.02284316
0.10266319 -0.00878978 -0.08274546 -0.8289193 -0.2288728 -0.13438603 -0.06890804 -0.035073772
-1.5241054 0.15146556 0.5813711 0.0093246335 -0.0065432983 -0.07016343 0.17053208 0.20133571
00000000: b75f 26be 7109 773d ea5c 28bd f28d c93e
00000010: f7e7 fdbd d604 013e b36f 16bd dd91 af3d
00000020: dad8 9abd 6732 e23c 2732 753e 0897 fabc
00000030: 2f2d cb3e 977e 283e 95a0 923d 6672 77bf
00000040: fcc7 5ebe 6f3a 9d3d 4647 72bf ca4b 803d
00000050: 2e52 5bbd 2689 e23c 4999 ae3c 30c2 82be
00000060: ff2a 9e3b 0688 e73c c55b 3a3e cd74 72bf
00000070: 4336 4f3c ffd0 8bbe 14c4 e8bf a791 13bd
00000080: 2f1d 243e b25e d93c c67e 3cbf 4247 d93d
00000090: c54f bcbe eb6b 75be 5abf 923f c226 d13d
000000a0: 922c b53d 1259 383e 518e e13d 7c74 213d
000000b0: fcc0 bcbe b277 2f3d 5cd1 3d3e dbb2 fabd
000000c0: 09cf 1dba 566d 313d 8b89 23bf 3272 cd3d
000000d0: abf9 e5bf cd3e 133e 9d87 e6bd 1849 a33d
000000e0: 923b 8dbf 46cf 31bf 15de 4fc0 3284 92bf
000000f0: 8dc5 ca3d d05a 753d 8fdd 0f3d 95af 44c0
00000100: bab0 25be 7536 30be 2375 873d 6ff4 1abd
00000110: 4d00 383f d8a5 843c 248c f43d 570f a8be
00000120: 0e17 953e fa9f 693d a1dc 263e ca94 a03c
00000130: de75 c0bd 109b 92bd 702e 5a3d 9029 81be
00000140: 4369 19bf 1b0f 23bd 2ba3 423f c0cd a2bc
00000150: 5e15 ebbc 2d29 00be 3bef f13a e4d9 b43d
00000160: 926b 723e ff6c e1be f430 78bd f52e 40bd
00000170: 120d b8be 68cf 953d ca5b 02bd b035 c5bf
00000180: ef13 c73d 1732 383e 086c 26bd 89b8 c9bf
00000190: 0661 b6bc 09b9 963e 45c2 13be 1d9f 993d
000001a0: b59c 2abd a429 b23d f2d0 4f3e 5f76 be3d
000001b0: b324 aebf 6614 b23d 85f1 37bd 0f22 8c3a
000001c0: b524 f43d 9df3 623d c261 a53d 251d 9cbe
000001d0: b283 e53e e520 c73d d439 bebb d2b0 adbd
000001e0: 60da 7dbf f6c9 d03c 4f4c f9bd 55ab 783e
000001f0: 15cc 473d f094 bf3d fdfb 1bbf ca3d 13bf
00000200: 397c 9bbf 856c 003e 2262 a5bd b312 1c3d
00000210: 9ced f6bd 2885 e23d ad30 eebc 712e 573d
00000220: d774 5ebd 2249 b93d 4baf 76be cb93 13bd
00000230: 0b93 8c3e ec68 6e3d 5adb 553e cd74 a3be
00000240: 3ee6 38bf 4afa a4bd 01df 203f bfea 813d
00000250: b713 d63c d0b8 29bc da70 943d ccf8 a4bf
00000260: aa20 8f3e c332 183d 5832 65be aa00 173f
00000270: 55ed 853d 74bb f63d cc88 96bf 5cfe b33c
00000280: 2583 873f f44c a1bd 0493 5e3d bd83 133f
00000290: 8ed8 12bf 4559 09be 3d5c 33bf 2612 403e
000002a0: 2ae3 bd3d 17a5 43bf 0f92 3ebd 5455 963d
000002b0: aa43 0fbf b97a 373d 6b42 34be 378e 45be
000002c0: 100a 2fbe 0763 8f3e fc0f d0be 1271 bf3c
000002d0: d211 e23e cff4 053e bddd 37be d46f 5b3e
000002e0: cb7e 07bf 064c 14bf 30d4 7cbf b7d4 603e
000002f0: fd3a 153e 137a cb3d 0e9e 2a3e 0ee0 42bf
00000300: 0d2d 6b3d 8dcd 23be 5a05 803a 7bfc 09bd
00000310: 328a a5bd 444b cc3c c289 dbbc 3f79 73be
00000320: b4a8 003e a806 c7bc 051b 04bf 27fb aebc
00000330: dfef 02bf 0caf 183d 8731 dd3d 1ca3 e73e
00000340: 0887 27bf ff5a f1bc f46a 1abf de3d 0abe
00000350: f898 33be 68e6 1fbc a167 bc3c bd32 8f3d
00000360: 49b1 4c3e adf2 a7bd b48a 87be 6caf 8abd
00000370: 7996 6f3f b37f b23d a146 2dbd ed0c dbbe
00000380: f816 1b3d c501 07c0 b12a 913d 5b55 c93e
00000390: 74ee 13bf a51d c3bf 6a51 663d 2afb 1ebc
000003a0: 121f ce3c caaf 923c e944 f1bd ad0c f13d
000003b0: d40b 0ebe 9634 64be 0e58 813d 9421 bb3c
000003c0: 1441 d23d 0203 10bc 7476 a9bd 0e34 54bf
000003d0: a25d 6abe 7e9c 09be a91f 8dbd 84a9 0fbd
000003e0: e315 c3bf ca19 1b3e bdd4 143f 59c6 183c
000003f0: 2a69 d6bb d8b1 8fbd f69f 2e3e f32a 4e3e

network.2.bias f4 [64]
0.8732659 0.021114988 -0.15967673 0.7413143 0.32724693 -0.023532946 -0.009041451 0.5265229
-0.18445605 -0.09531839 0.16688198 8.888967 -0.15830015 0.01257458 0.058230627 -0.094833314
-0.027500482 -0.010921511 -0.23738684 -0.08429436 -0.027443461 0.02210013 0.96075386 -0.81229335
0.76657003 0.08619457 -0.013849675 -0.13055776 0.65161365 -0.13889799 8.321921 -0.12880512
3.085342 -0.09594374 0.00827327 -0.24286495 -0.12676282 -6.270909 -0.95286477 -0.45342508
-0.1324747 -0.13782583 1.1689926 -0.78514594 3.195034 -0.30019978 -0.086410634 0.607342
-0.17247602 -0.507781 -0.06186776 -0.16527377 3.5613413 1.5848227 0.9350238 0.15070562
-4.2126007 -0.05981617 0.49455392 1.6354271 0.18175289 -0.12919052 -0.0019014222 -0.69430953
00000000: 5b8e 5f3f 57f9 ac3c 4c82 23be c6c6 3d3f
00000010: e98c a73e 2ac8 c0bc 9822 14bc 34ca 063f
00000020: 0ce2 3cbe 4a36 c3bd 1ce3 2a3e 3539 0e41
00000030: 6f19 22be 9c05 4e3c 3d83 6e3d f837 c2bd
00000040: b148 e1bc 23f0 32bc 8915 73be 85a2 acbd
00000050: 1cd1 e0bc 550b b53c f7f3 753f 75f2 4fbf
00000060: ef3d 443f c786 b03d bfe9 62bc efb0 05be
00000070: 27d0 263f 463b 0ebe 9726 0541 7de5 03be
00000080: 3e76 4540 277e c4bd 9c8c 073c 97b1 78be
00000090: 1dce 01be 49ab c8c0 f2ee 73bf 5527 e8be
000000a0: 73a7 07be 3722 0dbe 8da1 953f 53ff 48bf
000000b0: 707b 4c40 c9b3 99be 0ff8 b0bd c47a 1b3f
000000c0: 8e9d 30be f0fd 01bf 0c69 7dbd 873d 29be
000000d0: 04ed 6340 78db ca3f b85d 6f3f 9352 1a3e
000000e0: a0cd 86c0 cd01 75bd 2c36 fd3e ad55 d13f
000000f0: 6e1d 3a3e 854a 04be 2439 f9ba 45be 31bf

network.4.weight f4 [14, 64]
-0.37541544 0.3177988 0.08180906 0.33174372 -0.9246048 -0.22944655 0.0039060886 0.6342016
-0.20834285 -0.07632246 -0.19123352 -0.06567783 -0.09254306 -0.023722159 -0.39684477 -0.40702814
-0.087270975 -0.24554849 -0.44113353 -0.753244 -0.020299265 -1.0409497 -0.5429073 -0.37257278
-0.5728011 -0.27254358 -0.92829853 -0.07789115 0.44277132 -0.07186335 0.2594068 -0.002801898
-0.31564766 -0.021015758 -0.27193165 0.013304368 -0.09428651 -0.017737685 0.23742308 0.32674155
-0.017242521 0.049777944 -1.0138288 -1.1436807 0.31528664 -0.78467447 -0.033957172 0.059398152
-0.029544469 -0.45534614 -0.036610857 -0.8262611 -0.3555833 -0.33116272 -0.65697944 0.08971838
-0.21595351 0.08753934 0.44388136 -0.10232507 -0.40115207 -0.09334231 -0.25779083 0.4847241
0.45466304 -0.5803309 0.33515492 -0.16516553 0.23223029 -0.36498722 0.105607145 0.04191416
-0.578289 -0.208322 -0.15224431 -0.21409507 0.17058061 0.052422035 -0.3125378 0.075128265
0.043327313 0.031669624 0.050767038 -0.4070407 0.06861104 -0.51513433 0.31774375 -0.4940825
-0.15980989 -0.10413581 -0.39842895 0.015771843 0.70895576 0.67116433 0.40640777 0.08266451
-0.18649374 0.06937689 0.008824099 -0.13407648 0.058113895 -0.024273865 0.35892233 -0.39935204
0.049633946 0.04497883 -0.2778116 -0.4625331 0.17679979 -0.6467962 0.07388684 -0.13209715
0.031810198 0.07385018 0.07341921 -0.21917835 -0.6393046 -0.578937 -0.42063296 0.0027652443
-0.23337229 -0.045247883 0.5926144 -0.113443896 -0.67262536 -0.030348253 0.3743619 0.03738069
-0.22361773 0.10769816 0.09995863 -0.80074793 0.08255669 -0.29929298 -0.042195164 -0.15161149
-0.23218162 0.1954369 -0.24752016 -0.18873435 0.17412144 0.0066124643 -0.1839784 0.17494796
-0.07180687 -0.10029574 0.037832413 -0.28381485 0.0664992 -0.11913312 0.49747604 -0.22800149
-0.39060244 -0.06418967 0.15059178 -0.010291398 0.1353221 -0.0071313353 0.32888433 -0.06702769
0.17120932 0.014832221 -0.5247084 0.019074896 0.035944667 -0.12542862 0.1128055 -0.4112003
-0.06953861 -0.086270556 -0.2732141 -0.24452011 -0.5902688 0.2604574 0.06343439 0.355546
0.004026054 0.8817258 0.06423255 -0.2877821 -0.3529776 -0.08533195 -0.14243326 -0.19210084
0.0048383507 -0.0022377218 0.30242485 -0.122966595 0.051803622 0.06927078 0.22633927 0.16719647
-0.09633555 0.1453829 0.0756917 0.117329605 -0.007431168 -0.17768519 0.21708028 0.2593248
-0.3659109 -0.17753142 -0.2399875 -0.3068955 -0.13332397 0.060280606 0.14915729 -0.14744094
0.01860339 0.022556588 0.1900676 -0.19224685 -0.15641879 0.22945313 -0.078713864 -0.26276457
-0.20209348 -0.48989758 -0.08402955 0.018454298 -0.7308159 -0.16841625 0.16915989 -0.021498933
0.1028668 -0.0760924 -0.20932741 0.16326432 -0.08547267 -0.23555331 -0.022816544 -0.015353145
0.104023874 0.0013578534 -0.64320296 0.009515792 0.22151403 -0.22527628 -0.05007626 0.050851006
-0.11941352 0.7437352 0.10006241 -0.42554152 -0.22426093 -0.20894866 -0.31574845 0.35501212
-0.0631877 -0.12175836 -0.042960394 -0.12925328 -0.46586388 -0.4512378 0.017413847 -0.068154156
00000000: 7436 c0be 86b6 a23e 828b a73d 50da a93e
00000010: e6b2 6cbf 09f4 6abe 4bfd 7f3b 095b 223f
00000020: d457 55be f34e 9cbd b8d2 43be 1982 86bd
00000030: 3787 bdbd f954 c2bc 3d2f cbbe fe65 d0be
00000040: 20bb b2bd 1071 7bbe 41dc e1be 99d4 40bf
00000050: a54a a6bc d73d 85bf f9fb 0abf dcc1 bebe
00000060: 18a3 12bf d58a 8bbe f9a4 6dbf 6585 9fbd
00000070: ecb2 e23e 182d 93bd f8d0 843e 0ca0 37bb
00000080: 929c a1be 3d29 acbc a03a 8bbe 90fa 593c
00000090: 4919 c1bd 9f4e 91bc 091f 733e ab4a a73e
000000a0: 3040 8dbc f5e3 4b3d 24c5 81bf 2164 92bf
000000b0: 406d a13e 6de0 48bf ad16 0bbd 7a4b 733d
000000c0: 3e07 f2bc 2123 e9be 44f5 15bd d985 53bf
000000d0: 040f b6be 298e a9be ce2f 28bf 45be b73d
000000e0: eb22 5dbe d347 b33d 6b44 e33e ce8f d1bd
000000f0: ce63 cdbe 412a bfbd 29fd 83be c22d f83e
00000100: 98c9 e83e 9190 14bf 6d99 ab3e 2721 29be
00000110: c7cd 6d3e 9bdf babe 8f48 d83d 2fae 2b3d
00000120: bf0a 14bf 5d52 55be efe5 1bbe bd3b 5bbe
00000130: afac 2e3e 7db8 563d f404 a0be d9dc 993d
00000140: fb77 313d 02b8 013d 19f1 4f3d a367 d0be
00000150: f283 8c3d d8df 03bf 4faf a23e 62f8 fcbe
00000160: 34a5 23be 2845 d5bd e1fe cbbe f433 813c
00000170: 207e 353f 6dd1 2b3f ae14 d03e 034c a93d
00000180: 37f8 3ebe 7915 8e3d f492 103c 584b 09be
00000190: d608 6e3d fcd9 c6bc abc4 b73e df77 ccbe
000001a0: f74c 4b3d b93b 383d 523d 8ebe 23d1 ecbe
000001b0: 010b 353e 7094 25bf fc51 973d 7a44 07be
000001c0: 694b 023d c33e 973d d05c 963d 4a70 60be
000001d0: 77a9 23bf 3735 14bf 345d d7be 1a39 353b
000001e0: 25f9 6ebe d855 39bd 94b5 173f 4655 e8bd
000001f0: 2d31 2cbf e69c f8bc 5dac bf3e 7f1c 193d
00000200: 0cfc 64be da90 dc3d 1cb7 cc3d d1fd 4cbf
00000210: 7b13 a93d ee3c 99be d6d4 2cbd 0b40 1bbe
00000220: 05c1 6dbe 9c20 483e ed75 7dbe 9443 41be
00000230: e44c 323e 5fad d83b d564 3cbe 8f25 333e
00000240: 7b0f 93bd da67 cdbd 29f6 1a3d 2e50 91be
00000250: bc30 883d 11fc f3bd 2eb5 fe3e 3979 69be
00000260: 0bfd c7be e075 83bd bb34 1a3e 409d 28bc
00000270: e091 0a3e faad e9bb 8763 a83e d045 89bd
00000280: 7f51 2f3e d802 733c 4a53 06bf f542 9c3c
00000290: b73a 133d 5c70 00be 9206 e73d d988 d2be
000002a0: 426a 8ebd 9eae b0bd b8e2 8bbe 7b63 7abe
000002b0: db1b 17bf ac5a 853e e4e9 813d 200a b63e
000002c0: fdec 833b c8b8 613f 5b8c 833d 2d58 93be
000002d0: 7bb9 b4be 84c2 aebd 06da 11be 15b6 44be
000002e0: 078b 9e3b bea6 12bb 6ed7 9a3e e9d5 fbbd
000002f0: 0930 543d d7dd 8d3d 7bc5 673e 8d35 2b3e
00000300: 934b c5bd 41df 143e 4004 9b3d 814a f03d
00000310: 2881 f3bb 1bf3 35be 4b4a 5e3e 38c6 843e
00000320: ac58 bbbe ccca 35be 48bf 75be 6821 9dbe
00000330: 1486 08be cce8 763d b0bc 183e c2fa 16be
00000340: 2366 983c 98c8 b83c 15a1 423e 5cdc 44be
00000350: 3f2c 20be c3f5 6a3e bc34 a1bd 1489 86be
00000360: 98f1 4ebe dbd3 fabe af17 acbd 782d 973c
00000370: c016 3bbf 4f75 2cbe 4038 2d3e 881e b0bc
00000380: d4ab d23d 55d6 9bbd ed59 56be c32e 273e
00000390: 4c0c afbd e334 71be c3e9 babc c28b 7bbc
000003a0: 780a d53d 00fa b13a f3a8 24bf 20e8 1b3c
000003b0: 93d4 623e d3ae 66be c41c 4dbd 2549 503d
000003c0: 138f f4bd 6e65 3e3f 85ed cc3d 94e0 d9be
000003d0: a8a4 65be a3f6 55be c8a9 a1be 26c4 b53e
000003e0: 8e68 81bd 725c f9bd 3df7 2fbd f95a 04be
000003f0: b685 eebe a408 e7be 7ca7 8e3c 6894 8bbd

network.4.bias f4 [14]
8.676274 9.27141 8.50601 8.772417 9.164877 9.473101 8.813225 10.160959
9.125725 9.333337 10.1123085 9.38106 9.559701 38.64332
00000000: 05d2 0a41 b257 1441 9e18 0841 d25b 0c41
00000010: 56a3 1241 d291 1741 f802 0d41 4a93 2241
00000020: f802 1241 5955 1541 04cc 2141 d218 1641
00000030: 89f4 1841 c292 1a42
