app/services/mahjong_ai/models/v0.1.pth (torch, 308032 bytes, 8 tensors)

network.0.weight f4 [256, 133]
00000000: 2d14 80bd 3de9 93bd 38c4 1fbe cd5c 5a3d
00000010: be8b d5bd d405 f2bc 9d1a d3bd d9f7 1ebd
00000020: d305 7abb 3ef5 af3b 6cdb e3bd 59d8 ccbd
00000030: 7632 233e a460 61bd 1ea0 f1bd cf04 49bc
00000040: bc40 313d b547 52bd cf1f 88ba 89d7 30bd
00000050: 55cd a0bd af94 17bd 6317 febd ce1a 9a3b
00000060: ab5e ccbd c197 3cbe 1201 1cbe 4db4 d1bd
00000070: 065c 8ebd a545 06be e775 e0bd f648 e6bc
00000080: 25cc 1fbe 515a b8bd cb5d a23d 8dcb ccbc
00000090: f5e7 19bd 0236 253d 8198 bb3d 5d0b 253d
000000a0: 8969 883d 5708 993c d3d7 23bd 3dd0 2bbd
000000b0: a08e 24bd eaaf fe3c 8e01 04bd 99ce 933b
000000c0: eca0 813d 1936 96bd 7700 0bbd eb9d 40bd
000000d0: 8f62 283d 433d 243d b6c7 babd 2fae 463d
000000e0: d013 d0bd 1144 053d 55b0 92bd b75b 6b3d
000000f0: 9472 50bc ff36 2cbd f78b 803b b1b6 373d
00000100: f782 61bd f51a 92bc 66e6 b13c 30b6 acbd
00000110: bac1 75bd 4e3c da3c 737b c6bb 3f10 1f3c
00000120: 4b0b b23b 651e 30bd a073 aebc c0a9 5c3d
00000130: 7f36 c8bd 2f13 c0bd 1ee7 85bc 2c7c 86bc
00000140: 427c 9bbc c838 c5bd 8ea3 90bd 4dd9 16bd
00000150: ac5d d53c 7944 debc 03e3 743d 6911 2e3d
00000160: 75cf ad3d af2d b93d ca62 263c 0676 cb3b
00000170: 09d9 b33c 1f89 7e3d 7c1e fc3d 9b05 58bd
00000180: 58bf af3d 720e 45bd 9234 12bc 3531 41bc
00000190: 2860 edbd d95b e03c a063 983c a231 acbd
000001a0: 38bd e3bd 88a6 bc3c b179 1a3d 2c8c e4bd
000001b0: 809d 11bd 917b 8abc a649 ebbd 19d1 803d
000001c0: ddca 96bd 577d 543d d85c 2cbd dd39 eebd
000001d0: 9b0e 9f3b b3e1 79bd de5a 413b 8ce4 8abc
000001e0: 2a4a 35bd 90bc e0bd 3fb3 dc3b 03fb 0bbe
000001f0: b3d9 93bc af0d debd 92fe cebc ae16 a1bc
00000200: b442 933c 7605 a8bd 714c 65bd 3617 8bbd
00000210: 54b2 d9bc 8bfe 67be c904 773d 5abf 4ebc
00000220: bddb bd3d fbba 71bd 9714 24be 19d6 d6bd
00000230: 7643 f6bd 568e 86be a8a9 93be a24f 3fbe
00000240: 88e9 7abe 8abf 013d a2f9 913d 745d 553d
00000250: fbe6 563c cdb5 4f3d 853d f03c 80cb 483e
00000260: dd83 0c3e 861d db3d 37d6 113e 43c7 163e
00000270: 3156 fe3d 66fd d23d 629f dbbc 82a0 473e
00000280: 9cbe 3d38 6d6c 3abd af5a 003e 553f 243d
00000290: ff06 eabd 382e 03be 1a4e 033d 7c36 debc
000002a0: b6ad 5a3d 47ba 03be 3526 b4bd 5948 0abe
000002b0: 159a 86bc 728d 113d 32dd 0dbe 1ece a4bd
000002c0: 50f0 dabd 2f01 5a3d f170 d4bd 00ba eebc
000002d0: cfb0 613d f769 f73c 8f14 ff3c c866 aabd
000002e0: 8805 023d 7404 113c ae89 c2bd 9035 9fbd
000002f0: 1896 dabd 0672 eebd 2055 c0bd 7602 11bd
00000300: be35 88bd a28a 833d f84c 783d d11b 8dbd
00000310: 9daf 3fbc bc85 83bb 5c1b c5bd bb4f f3bc
00000320: 2dd8 f63c 4e66 cebd f97d 63bd cf62 a43d
00000330: 596f 7dbd 497d a3bd 4503 cfbd a620 7c3d
00000340: ed03 303d fff8 7a3c d56d 3abd 81b2 c2ba
00000350: 179a a0bc 94c5 35bd c61c b83b 0df4 d6bc
00000360: 0994 d0bc 2935 dfbd 28cd 823d 8db4 c1bd
00000370: 0863 813d fcac 98bd 8777 1ebd af6c bdbb
00000380: 66b5 72bc 115b 3ebd cb93 64bc 8427 dfba
00000390: d186 cb3d 0232 2e3a a99d abbd 19f5 35bd
000003a0: 1469 02bd be76 48bd ad57 19bd e24a 113d
000003b0: 6d82 a13b 8aa7 04bd a595 84bd a6b3 2a3c
000003c0: 587b 27bd 069c b0bc 5222 debc db55 00bd
000003d0: 20df 183e 7b39 90bd dd09 223d 1265 153d
000003e0: 0672 43bb 163a bdbd 5ab4 3d3b 3ee5 5bbc
000003f0: 0030 873d 1bcb 77bc 104d 993c 3ade 203d
-0.06253848 -0.07222221 -0.15602195 0.053311158 -0.10427044 -0.029543795 -0.103078105 -0.038810585
-0.0038150444 0.0053698113 -0.11125836 -0.100022025 0.15937218 -0.055023804 -0.11798118 -0.012269213
0.043274626 -0.051337916 -0.0010385456 -0.0431743 -0.07851664 -0.03700703 -0.124068044 0.0047029024
-0.09978994 -0.18417265 -0.15234783 -0.10239468 -0.06951146 -0.13112505 -0.10959988 -0.028110962
-0.15605219 -0.090016015 0.07928046 -0.024999404 -0.037574727 0.04033471 0.09159947 0.04029404
0.06660754 0.018680735 -0.040000748 -0.04194664 -0.04017508 0.031089742 -0.032228045 0.0045107123
0.063295215 -0.07334537 -0.03393599 -0.047025602 0.041109618 0.040097486 -0.09120123 0.04850596
-0.10160029 0.032535616 -0.07162539 0.057460513 -0.01272263 -0.042044636 0.003922935 0.044851962
-0.05505654 -0.01783512 0.021716308 -0.08433187 -0.059999205 0.026640084 -0.0060571968 0.009708463
0.005433475 -0.042997736 -0.021295369 0.053872824 -0.09776019 -0.09378659 -0.016345557 -0.016416632
-0.01898015 -0.09629971 -0.070624456 -0.036828328 0.026045643 -0.02713226 0.059786808 0.042497072
0.08486835 0.090419166 0.010155389 0.006209138 0.021954076 0.062142488 0.12310502 -0.05273972
0.08581418 -0.04810948 -0.008923667 -0.011791517 -0.11590606 0.027387546 0.018602192 -0.08407904
-0.11120075 0.023028627 0.03771371 -0.11159548 -0.035550594 -0.016904624 -0.11488657 0.06289882
-0.07362912 0.051877346 -0.04208073 -0.1163213 0.004854036 -0.06100626 0.0029503624 -0.016954683
-0.04426018 -0.109734654 0.006735235 -0.13669972 -0.018048143 -0.10842454 -0.025267873 -0.019664135
0.017976142 -0.082041666 -0.055981103 -0.067915365 -0.026574291 -0.22655694 0.060307298 -0.012618864
0.092704274 -0.05901621 -0.1602348 -0.10490055 -0.12024586 -0.2628047 -0.28840375 -0.18682721
-0.24503148 0.031676807 0.07127692 0.052091077 0.0131165935 0.050710488 0.02932621 0.19608879
0.13722177 0.106989905 0.14241873 0.1472445 0.124187835 0.10302238 -0.026809398 0.19494823
4.523863e-05 -0.04551356 0.12534593 0.04009946 -0.11427116 -0.128106 0.032056905 -0.02712559
0.05338832 -0.12864028 -0.0879635 -0.13504161 -0.016430894 0.035535283 -0.1385391 -0.08047126
-0.10690367 0.053223785 -0.10373104 -0.029141426 0.05510026 0.030201895 0.031137733 -0.08320385
0.031743556 0.008851159 -0.094989166 -0.07773888 -0.10673159 -0.11642842 -0.09391236 -0.035402738
-0.066508755 0.064229265 0.060620278 -0.06890071 -0.011699584 -0.004013745 -0.09624359 -0.029701104
0.030132378 -0.10078107 -0.05554006 0.08026659 -0.061873768 -0.079828806 -0.101080455 0.061554573
0.042972494 0.015318154 -0.0455149 -0.0014854224 -0.019604726 -0.04437788 0.0056186644 -0.02623942
-0.025461214 -0.10898811 0.06386787 -0.094582655 0.06317717 -0.07454869 -0.03868821 -0.0057807784
-0.014813757 -0.046473566 -0.013951252 -0.0017025326 0.099378236 0.0006645025 -0.08379681 -0.044423196
-0.03183849 -0.048941366 -0.03743713 0.035471804 0.004928878 -0.03238634 -0.06473855 0.010418808
-0.040889114 -0.021558773 -0.027115975 -0.03133188 0.14928865 -0.070422135 0.039560188 0.03647334
-0.0029822602 -0.09239595 0.002894661 -0.013421355 0.06600952 -0.015124108 0.018713504 0.03927443

network.0.bias f4 [256]
00000000: 83d9 c23c f6ef 113d dbde 0d3c e6d1 ad3d
00000010: 310a 913d eb52 c63d a334 3fbc 54cf 913c
00000020: 1469 55bd 1043 f23b eb5c 423d 1677 003b
00000030: 4537 bbbd 769e 733c 1be6 373d f825 5f3d
00000040: 4cc5 d4bb 5d53 8fbd c5fc fa3c ef46 b13c
00000050: dd7d 293d 41e9 c93d 0a46 b03d 1ac7 6ebd
00000060: 85ce 803d 3f2c f53b 9de0 553c 5ee8 14bd
00000070: 4423 ca3d 04ee 44bd 8249 84bd 1cf2 293d
00000080: 8c97 96bd 2ea8 cf39 21ec f83d c1fb a4bd
00000090: b5bd 573d dc51 38ba 1992 57bd b5a7 3dbd
000000a0: bded 343c e503 313b 8677 d33c eda6 a3bd
000000b0: 5272 303d 9200 6a3d 0651 893d 1962 163d
000000c0: edd0 a63c ce61 b3bc 1a07 673d 68ef 953c
000000d0: 3b95 593d 9bbf fbbd 9cee 88bb 13e7 b33c
000000e0: 7ec3 96bd 7e50 d23d c519 a4bb 6ccc bb3d
000000f0: 166e c9bb 8f7e 30bc dba6 c0bc 5b89 72bd
00000100: ad4e 933d 18e1 583d 7688 d13d 4aba 5bbd
00000110: 7155 c43c 6137 c73c 7c66 5c3d b18e 6b3d
00000120: aab9 afbd 47c2 2cbd e4ea 85bd 94b3 26bd
00000130: 2bb2 9f3c f675 30bd 01f0 883d 5236 383c
00000140: 46fc c1bc c511 0d3d d632 93bd f5ee 4a3d
00000150: cf9b ac3d 6b38 223c 5ebb ab3d f968 1b3d
00000160: 0f67 e9ba 7239 623d 8548 adbd 904f 433c
00000170: 6f63 9d3c 5e75 5b3d bcd5 39bd 40e4 bfbd
00000180: 2660 02bd 14e5 8a3d 3d97 743c c96d 653c
00000190: 7bfb febc c14e 0ebd 17c8 73bc 26bf 49bd
000001a0: 8433 b2ba 33f2 ba3d 95b5 77bd a568 52bd
000001b0: 6bfe d53d c6b9 8e3d 8f85 babd 35ed debc
000001c0: 7f31 5abd ab54 bc3c b697 babb fc6a 34bc
000001d0: a36f a33d 05a3 263c a22f a13c 49c1 7abd
000001e0: 43eb 80bd c619 b6bd 934a 63bd c8e3 1fbd
000001f0: b69d 8c3d d849 b0bc f1bb 3abd 024a ac3c
00000200: 1d03 623d 7f53 d5bc fce0 d2bb 2a56 d1bc
00000210: cf40 a1bd 02e0 a6bc 4308 e43d 5c37 cdbc
00000220: 864a 9e3d a5a9 16bd 0d51 8e3d d5d1 24bd
00000230: 565d 39bd 3f67 c93d 8bad 8c3d 54fe 493d
00000240: 0d2a 073d 43f0 31bd aaf7 83bd ac5a ddbc
00000250: 345d 213c 1c99 42bd 25d2 743d eeff 6dbc
00000260: b60b 39bc 85c5 a9bc 3cfb 363d 8ba0 cfbc
00000270: 14e8 8c3d f00e 183d 12f0 963c 9fcd de3c
00000280: 802f 263c f58e 803c 5508 b63d bef1 8a3d
00000290: 880c ba3d 4d6c b0bd a370 03bc c498 2fbd
000002a0: 7cc2 84bd 3c47 943b 9a2e e0bc 4170 c03d
000002b0: 132b 8b3d c29c 703d fbe7 343d 74a3 91bd
000002c0: 1220 77bb bd54 d63c 1dc2 26bc 22c6 2dbd
000002d0: f858 11bd 3ec9 803c a4c9 ba3d a3ce eebc
000002e0: e6b1 eabd a76b 9a3d 9ca4 00bd db52 97ba
000002f0: cd81 a93d 9639 82bd 87b2 32bd 4485 3d3d
00000300: 8a0c 83bd a1bf a03d 6a77 413d 022d c23d
00000310: ff5a 85bd c696 203d 05ce c93c 50d4 1cbb
00000320: 336b 0cbd ab2b 9d3d 0a1c a33d c7ec 50bd
00000330: 62df 283d f5df 63bd a3d9 ce3b 2604 363d
00000340: 50a1 a2bc 4156 4e3c 3e01 183d 7805 9fbd
00000350: 33e1 64bd 9489 c73d 0179 b9bd a2b4 93bd
00000360: 46c8 45bd 22cd 0bbc 1fd5 07bd 68ab 9aba
00000370: a008 7dbd 6ef7 d03d 2e34 df3c 2bf6 a3bd
00000380: f9a5 05bd d6c9 45bd 955b e13d 3882 6e3d
00000390: cdd2 313d 4c4c 18bc 356e eebc 7d95 863d
000003a0: 46e9 cebc 0060 5a3d 624f a43d 5e95 443d
000003b0: 725b 45bd 4f1a 42bd 7bb6 04bd 7b0f 893d
000003c0: 4867 9f3d 0eb8 f1bc 397e edbc fa83 4dbd
000003d0: e669 053c 541d 5bbd 9ff6 98bc b26e e63c
000003e0: aa18 67bd e8f0 63bd afc3 4c3c 1f9b b13d
000003f0: d903 c7bc 4791 ee3c caa4 bd3d 3257 8abd
0.023785358 0.035629235 0.00865909 0.084873006 0.07082022 0.09683784 -0.011670264 0.017799057
-0.052102163 0.0073932484 0.047451895 0.001960223 -0.09141401 0.014869323 0.04489718 0.05447957
-0.006493246 -0.06998322 0.030638108 0.02164027 0.0413798 0.09858943 0.08607109 -0.058295347
0.062893905 0.007482081 0.01305404 -0.036354415 0.09870008 -0.048078552 -0.06459333 0.04149066
-0.07353124 0.0003960742 0.12154413 -0.08055831 0.052671153 -0.0007031241 -0.052629564 -0.046302516
0.011043009 0.0027010378 0.02581383 -0.07990823 0.043077774 0.05712945 0.06704907 0.036714647
0.020363295 -0.021897223 0.056403257 0.018302634 0.053120833 -0.12292405 -0.004178835 0.02196077
-0.07361506 0.10269259 -0.005007955 0.0916985 -0.0061471565 -0.010772361 -0.023517063 -0.059213024
0.071927406 0.05294904 0.10231106 -0.053644456 0.023966523 0.024318399 0.053808674 0.057509128
-0.085803345 -0.042177465 -0.065389425 -0.040698603 0.019494137 -0.043081246 0.06686402 0.01124342
-0.023679864 0.034440774 -0.071874306 0.049544293 0.08428156 0.009901146 0.08385347 0.037941907
-0.0017807203 0.055230565 -0.08461098 0.011920825 0.019212453 0.053578727 -0.04536985 -0.09369707
-0.031829976 0.067819744 0.014928636 0.014003226 -0.031125775 -0.034743074 -0.014879248 -0.04925456
-0.0013595675 0.09128227 -0.060475904 -0.051369328 0.10448917 0.06969027 -0.091075055 -0.027212719
-0.05326986 0.022989592 -0.005694355 -0.011011835 0.079802774 0.010170703 0.019676033 -0.061219487
-0.062948726 -0.08891635 -0.05549104 -0.03903559 0.068660185 -0.021519586 -0.04558939 0.021031383
0.05517875 -0.02604079 -0.0064355116 -0.025553782 -0.078736894 -0.020370487 0.11134388 -0.025050811
0.07729058 -0.03678288 0.06949053 -0.040239174 -0.045255028 0.09834146 0.06869038 0.04931481
0.032999087 -0.043442022 -0.064437225 -0.027020775 0.0098488815 -0.047509298 0.059770722 -0.01452635
-0.011294296 -0.020724067 0.04467319 -0.025345108 0.06880203 0.03712362 0.018425021 0.027197657
0.010143161 0.015693167 0.08888308 0.0678439 0.090844214 -0.08614407 -0.00802246 -0.042870298
-0.064824075 0.0045250934 -0.027365971 0.09396411 0.06795325 0.058743246 0.044166546 -0.07111254
-0.0037708324 0.026163453 -0.010178116 -0.042425282 -0.035485238 0.01572096 0.09120491 -0.029151266
-0.11459713 0.07540064 -0.031406984 -0.0011545079 0.08276711 -0.0635864 -0.04362729 0.04626967
-0.06398876 0.0784905 0.047233023 0.09481241 -0.06511497 0.03920629 0.02463437 -0.002393026
-0.03428192 0.07674345 0.079643324 -0.05100706 0.04122866 -0.055633504 0.0063125654 0.04443755
-0.01985231 0.012593807 0.03711056 -0.07764715 -0.05587883 0.09743038 -0.09056283 -0.07212187
-0.0482867 -0.008532794 -0.033162232 -0.0011800351 -0.061775804 0.102034435 0.02724656 -0.08005937
-0.032628987 -0.04828819 0.11003796 0.058229655 0.043413926 -0.009295534 -0.029105285 0.065714814
-0.025257718 0.05331421 0.080229536 0.04799401 -0.048182912 -0.04738837 -0.03240059 0.06692406
0.07783371 -0.02950671 -0.028990852 -0.05017469 0.008142924 -0.053494766 -0.018672286 0.028128956
-0.056420006 -0.055649668 0.0124978265 0.08672165 -0.024293827 0.029122008 0.09259947 -0.067549124

network.2.weight f4 [128, 256]
00000000: 37ed bcba d17a 2b3e 44ae 23bd 6085 e8bd
00000010: a7d0 5c3d d4e4 fa3c 04d4 3b3d 003d 18bd
00000020: ea3b 573b 6165 883e 3e1a 0b3e b187 9cbe
00000030: fc11 de3d 8fd0 273d 9ab8 52bd 43c2 73be
00000040: 036c d9bd 53e8 81bd 2f3f aa3d 0de5 9a3b
00000050: 9f64 09be 42db 4dbd efcc babd 31ae 733e
00000060: 1e85 583d f5f3 03be 4cae 463e 5f8a 9ebe
00000070: 7684 05bd 20e1 e0bc 1fb7 83be 8846 89bd
00000080: e178 17be d32d ecbc a65a 923c 3f26 703d
00000090: 0ea4 b23d 4380 8dbe 7056 cbbd 5d2c 37be
000000a0: 7761 393d 9351 09bd a012 16bd b9b0 65bd
000000b0: 4198 9d3d 9549 b6bc a0cc 9a3d c98f 62be
000000c0: 8bce 67bd 1d38 1dbe 5d35 5cbe 545b 87bc
000000d0: 628f 85be 1885 e33a 24b5 293e 4f9d c7bd
000000e0: 8635 533d f43d d8bd 2a08 fcbc 472d 08be
000000f0: 4bb9 aebd 2dde 2c3d f2ee c3bc eae1 04bc
00000100: 3591 c2bd 2009 193e b940 60bd 613e 9cbd
00000110: 1fe4 3c3d f347 08be cf52 b0bc 7cee b3be
00000120: 21fa e7bd 996f 923e 040a 813d b709 02bd
00000130: f7fa 1b3e 79e3 93bd 7a61 07bd 67bd cf3c
00000140: a18e c439 acde 933e 38bc 073d bffb aabe
00000150: ea82 f8bd 1cb6 723d be9a 023d 992c 94be
00000160: e040 8a3d 03a6 8cbd 115c 363e 8a3e 06be
00000170: 0ccd 14be eb26 e5bd e511 bd3a dc59 78be
00000180: fd66 9ebc 343c 0dbe 9165 51be 0e12 943b
00000190: 067d febd c9b1 42be 4780 f3bd d570 fd3b
000001a0: 3bde a3bd 8bad a2be d947 d33c 9f83 7dbd
000001b0: 7561 863d 18c7 94be 8167 013e f19a 233d
000001c0: 6383 933d b46e 1c3c e289 e63d b53e f53d
000001d0: 4156 35be 08bc d8bd 5325 853d ee50 db3d
000001e0: b92c eab9 7b20 b7bc 85ba 5c3e e99f 893d
000001f0: e66c e33b 217e 873e 005a 8fbe ad86 58be
00000200: 22f5 edbd 7da8 92be ab51 efbd fe9f 4cbc
00000210: 7e96 3d3e 3d9b 583c 2a8f c53b ad61 5dbd
00000220: e6ef 59bd 087f 3dbe 7544 d9be 61b1 d03b
00000230: ecd8 5abe 41f9 f8bc a9e9 e7bd ae77 e13d
00000240: b2f6 903d 5794 b93e 2d9c 003e cfd2 cbbd
00000250: 581a 17be 3e3f a03c fe7b 02be add5 67be
00000260: 41f7 46be 729a 273e 09fd 8d3c 89f6 6fbe
00000270: d78f d6bc db00 00be 81b7 103d 7bc8 b7bd
00000280: 3996 44be 3aa7 1b3e 09b7 c9be 01a6 09bd
00000290: be42 843d 22ee 353d 8a1e 823c 18c0 04be
000002a0: 70b5 7d3d 8890 60bd 1dc3 dfbb 67fe 1cbe
000002b0: 32f8 2dbe d288 833d bed0 88bd 0c07 d63d
000002c0: 48ad f43d df12 2cbe 8b10 d03d 8a54 653e
000002d0: ab4f b13d eb46 e73d 53c1 b3be 4aa1 8abc
000002e0: 8c06 943e 03f2 d0bd bdbc 2ebe d6fa 0abe
000002f0: a6ea 72be 22cc d13d 7240 31bd 9ab3 af3c
00000300: c50f a4bb 9637 f03c 9c15 533e b01a 77be
00000310: 1b25 cbb8 111c dd3d cd0e cfbd a0ba afbb
00000320: b067 8a3b 4451 3a3e d807 18bd ef8a fbbd
00000330: b7df 40bd 8277 593e 74b1 2fbd d744 283e
00000340: 9a66 f83d 80cf 7bbb 58b6 19bd 2d91 b73d
00000350: 3cbd 3b3d 08c9 84bd c5c6 01bd b90d 903d
00000360: ae4a 9bbe d46d 8fbd 8d05 f4bc 03ec 91be
00000370: 7437 a8be 6774 c53d 80bb 75bd b19a 663c
00000380: e9a1 40be 5643 13be 516d 14be 87ee e63c
00000390: 5eb5 013d de9d 233d 95d2 21bd 2b1d 713e
000003a0: edec 6d3d 2d86 c63c 29b6 06be 56ea 47be
000003b0: 12f3 8f3d dc54 7fbe fc23 0fbd 057e 1a3e
000003c0: 0030 043e b58e eabd 2d78 febd d4cf 5b3d
000003d0: b4ca 3abe 64f7 bcbb ce11 6e3b e8c4 07bd
000003e0: cabe 08be aaf5 52be 4e32 99bd 0399 e8bc
000003f0: c3a9 b43c 02c7 33be 8865 7dbe fef5 6bbd
-0.0014413957 0.1674607 -0.039961115 -0.11353564 0.053909924 0.030626692 0.04585649 -0.03716755
0.0032842108 0.26639846 0.1358423 -0.30572274 0.10843274 0.04097038 -0.05144558 -0.23804574
-0.10616305 -0.063431405 0.083128326 0.004727012 -0.1341729 -0.05025793 -0.09121119 0.23796917
0.052861325 -0.12886031 0.19402426 -0.30964944 -0.032597028 -0.027451098 -0.25725648 -0.06702906
-0.14792205 -0.028830444 0.01786549 0.058630224 0.08722697 -0.27636918 -0.09928596 -0.17888017
0.045258965 -0.03352506 -0.036638856 -0.05607674 0.07695056 -0.022251884 0.0755856 -0.22125162
-0.05659346 -0.15353437 -0.21504731 -0.01652304 -0.26085955 0.0017358391 0.16573006 -0.09746801
0.051564716 -0.105586916 -0.030765612 -0.13298522 -0.085314356 0.04220407 -0.023917649 -0.008110503
-0.09500352 0.14944887 -0.054749224 -0.07629085 0.04611599 -0.13308696 -0.021523861 -0.35142887
-0.11327005 0.28600767 0.063007385 -0.031747546 0.15232454 -0.07221121 -0.033051945 0.025358869
0.000374903 0.28880823 0.033138484 -0.33395192 -0.12134345 0.059255704 0.031885855 -0.28940275
0.06750655 -0.06867602 0.17808558 -0.13109794 -0.14531344 -0.11189064 0.0014424889 -0.24253029
-0.019336218 -0.13792497 -0.20448901 0.004518754 -0.1242619 -0.19013132 -0.11889701 0.007734398
-0.080013715 -0.31773028 0.025791096 -0.0618931 0.06561557 -0.29058146 0.1263714 0.039942686
0.072027944 0.009547878 0.11256768 0.11974851 -0.17708685 -0.10582739 0.0650126 0.107087955
-0.0004466528 -0.022354355 0.21555527 0.067199536 0.006940472 0.26463416 -0.27998352 -0.21145125
-0.11619021 -0.2864417 -0.11685499 -0.012489317 0.1851444 0.013220605 0.0060290294 -0.05404823
-0.0532073 -0.1850549 -0.4243504 0.0063688015 -0.21371812 -0.030392291 -0.11323864 0.11009155
0.070783034 0.36245987 0.12559576 -0.09952318 -0.14756143 0.019561406 -0.12742612 -0.22640105
-0.19430257 0.1636751 0.01733257 -0.2343389 -0.026191635 -0.12500326 0.035331253 -0.089737855
-0.1919793 0.1520051 -0.39397457 -0.03360558 0.064580426 0.044416554 0.015883703 -0.12963903
0.06194061 -0.054825336 -0.0068286792 -0.15331422 -0.1698921 0.06422581 -0.066804394 0.10450563
0.11947113 -0.16804074 0.10159405 0.2239553 0.086577736 0.112928234 -0.35108432 -0.016922612
0.28911245 -0.1020241 -0.17064185 -0.13572249 -0.23722324 0.10244013 -0.04327435 0.021447945
-0.0050067627 0.02932338 0.20613712 -0.24131274 -9.686706e-05 0.10796369 -0.10110245 -0.0053628236
0.0042237863 0.18195063 -0.037116855 -0.12282359 -0.04708835 0.21236995 -0.042893842 0.1643251
0.12128945 -0.003842324 -0.037527412 0.08963237 0.045834765 -0.06483656 -0.031683702 0.070338674
-0.30330414 -0.0700337 -0.029787803 -0.28500375 -0.32854807 0.096413426 -0.059993267 0.014074967
-0.18811764 -0.14381155 -0.14494826 0.02818991 0.031667106 0.039945476 -0.039507467 0.23546283
0.05808728 0.024233902 -0.13155426 -0.19522986 0.07028784 -0.24934715 -0.034946427 0.15087135
0.12908936 -0.114530005 -0.124252655 0.053664997 -0.18241388 -0.005766796 0.003632653 -0.03314677
-0.1335403 -0.20601526 -0.07480298 -0.028393274 0.022053605 -0.17556384 -0.24745762 -0.057607643

network.2.bias f4 [128]
00000000: 5079 71bc 6d91 d0bc be07 3e3d 23d2 0e3e
00000010: ca2f bc3d fea9 0bbc fda0 fdbc 6865 4bbd
00000020: 944f 0b3c 3cdc 973c da3d a13d 5dbe 113d
00000030: 685c db3d 80c5 093e 5f42 893d e040 b6bc
00000040: 7be5 013e bb94 09ba 7c81 3fbc 17cf 5e3d
00000050: 07b7 983d 5122 803d bcfc 3b3e 06c9 973d
00000060: 0065 9f3d 3002 443c e420 5cbc 8172 d03c
00000070: 4aef 7d3c aa18 c63c 32a5 3a3c 3de3 953d
00000080: 21ef debc 0323 903d b460 2abd 649b a33d
00000090: b90b 353d 008c b33d 7031 94bc c2c7 ce3b
000000a0: 0b01 23bd 7f7c 953d 9397 ac3b ccdd 8cbc
000000b0: d218 e2bb ce8b 823c 22dd 49bd 75e0 5ebc
000000c0: af62 863d fb1a 423d 52df 223e f76b e0bb
000000d0: 05b4 ee3a 8df3 203e 85c3 a03d 0f04 ae3d
000000e0: 7740 96bc aebc aebc feb0 ce3a 95a6 cbbc
000000f0: 5d46 aabc feda 0f3d ed22 5fbc 7522 19bd
00000100: 3004 213d 81b8 fcbc ee8b 323d 0ccf 083e
00000110: 026f fbbb 7f20 cdbc 331c b73d 950e fa3d
00000120: 01b8 9d3d 26d8 ed3d 0bae 603c c5e2 22bd
00000130: 90a0 8a3d 9686 8e3d f055 4e3d 64ff 753d
00000140: c1cb 923d 0afa 953d c786 f53c 9d2d a43d
00000150: df02 ab3c cabd 853d 8f60 2b3d 4815 f73d
00000160: b45f dd3c d7b2 acbc 12dd 763d c679 09bb
00000170: e0ec 03bd decb b13d ee5f 733c 682c aa3d
00000180: 1a22 5c3c bf1b 51bc 7ce7 cebc 9abf 03bd
00000190: c622 1f3d c82e 793d 9a2f 45bc 51a8 313e
000001a0: 2395 883d 0b73 653d 12be 433c 3ac2 8e3d
000001b0: c057 853d fad4 0d3d 9dba 86bb 6629 b53d
000001c0: c41f ad3d 3562 833d b3fa b3bc 2b0d a7bc
000001d0: 4bb6 603c 9bad 0abd d51d 5b3c 902f 173a
000001e0: d4a6 0e3d 1b6c 82bc 86b9 513d 5bef b43c
000001f0: d328 8abc c9a0 0abd 456a 9c3b e90d 443d
-0.014738396 -0.02545997 0.046394102 0.13947348 0.091888025 -0.008524416 -0.030960554 -0.049657255
0.00850286 0.018537633 0.078731254 0.035581935 0.107109845 0.13454247 0.067021124 -0.022247732
0.12685196 -0.0005248298 -0.011688586 0.054396715 0.07456785 0.06256545 0.1835813 0.07411389
0.07782936 0.011963412 -0.013435576 0.025445225 0.0154989455 0.024181683 0.011391925 0.07318733
-0.027213635 0.07037928 -0.04159613 0.07988623 0.044200633 0.08766937 -0.01808998 0.006310434
-0.039795917 0.07299136 0.0052670925 -0.017195605 -0.0068999315 0.015935805 -0.049283154 -0.013603319
0.06561791 0.04738901 0.15905502 -0.006848808 0.0018211609 0.15717907 0.078497924 0.08496868
-0.018341286 -0.021330204 0.00157693 -0.024859706 -0.020785505 0.035120957 -0.013619167 -0.037386376
0.039310634 -0.030849697 0.04359048 0.13360232 -0.0076731453 -0.02503991 0.089409254 0.122098126
0.077011116 0.11613493 0.01371337 -0.039767046 0.06768906 0.06959264 0.050374925 0.060058013
0.07167769 0.07323082 0.029971493 0.080165125 0.020875392 0.0653034 0.041840132 0.12064606
0.027023174 -0.021081371 0.060269423 -0.0020977124 -0.032208323 0.08681463 0.014854414 0.08309251
0.013435865 -0.012762963 -0.025256865 -0.032165147 0.038851522 0.06083563 -0.012035275 0.17349364
0.066690706 0.056017917 0.011947172 0.069706395 0.065108776 0.03462694 -0.0041116015 0.08845787
0.084533244 0.06415216 -0.021970129 -0.020392021 0.013715337 -0.03385697 0.013373812 0.000576728
0.03482707 -0.01592069 0.05120232 0.02208679 -0.01686517 -0.033844743 0.0047734105 0.04786483

network.4.weight f4 [64, 128]
00000000: 9755 4c3e 2686 273e a370 363d 83c3 eb3d
00000010: c8a8 223e ea28 483d 722c 95be 347c dabd
00000020: 51e5 313d fade c9bd 0747 25be dd4b 193e
00000030: 8851 f43d a4b7 2b3e a023 4d3f 8a36 f3bd
00000040: 7032 0a3e 7762 0cbe b6cd 2f3d 5cee d33d
00000050: 109b b7be d00a d23d 1b8a 1f3d fb20 343d
00000060: 408b 8dbc e5b3 99be 67a2 bebd dce2 093e
00000070: 2e9e c03d d9fe 9dbd 1ae5 043e 6ab2 f1b9
00000080: ce8f 953d de0a 8cbc 3617 d93d 5e3e c83d
00000090: 47ec 203f bc78 3b3e 2993 3f3e fdf2 13be
000000a0: d5f3 b03e 2570 563f 32ca 8a3d 3a6e 92bc
000000b0: 8423 c93d c052 ca3c e64f f73e 15e1 aebd
000000c0: 8bcc 53bd 4230 bcbd e2de 053d 3ff4 f43d
000000d0: d5f5 903f 2601 113e 22bb dfb9 3a36 ff39
000000e0: 9990 da3d a22b b3b9 c27f 743d df56 4f3f
000000f0: a467 02be 7794 d13d 9900 f93c 6b50 04be
00000100: 59f4 d53c dc78 073e 93c7 fe3d 460b ac3d
00000110: bfdf 22be 3dc7 25be 074c e13d 7eaa 7f3d
00000120: 5e95 a8bd dd85 c53d 8d36 d93e 143b a13d
00000130: 9396 ae3d 48b8 853c 8a6e 303e b065 143e
00000140: f22b 333c f2b2 25bd 8b26 aa3e 5621 983e
00000150: a6e8 87bd 059b a63d 27d2 d13d a6cc 533e
00000160: 5f6c 953b aa0e 1dbd 3e12 083e 8d3b a63e
00000170: 898a 38be 2e01 b13d 51fe 4b3d 096b 2e3e
00000180: 822c 613f 1b5e c43d c888 523d 122b d03e
00000190: 15c2 bbbb 457e 5b3f 2f92 b23d 0bd2 fc3d
000001a0: fb14 573d 8cf9 01bb f7b3 bd3c c605 303e
000001b0: dbff 25bd 14a7 da3e a206 8e3e b9e3 9b3d
000001c0: 9862 483d ddb7 013d 6c50 c03c 0509 f3bd
000001d0: 5340 dc3c 0f57 ff3e 2d17 273d 4a49 043e
000001e0: 16f0 9d3c 14c0 cdbc eb93 943d b3fd ca3c
000001f0: fb7e a13d 48e6 823e e61a 58bc 1efa bfbb
00000200: 751c 0cba 099a f43d de6e 93bd 7243 bbbd
00000210: 306f 4cbd 953f c73c cd6d f13d eb96 043d
00000220: 7a6c 1e3d 9c15 a4bd 8d75 213e 0c97 7b3d
00000230: 26fc cebd 599c 17be fd97 b1be 84b1 0f3e
00000240: f8ca 39bd 7ac5 2f3e 5eca 20bd 1018 0dbe
00000250: 937d 4e3d a09f 6e3d 9d88 43bd 52a9 0a3d
00000260: 2539 02be 27e7 503c b985 313e 051b 453d
00000270: 4dda c83d 1382 ea3d c30c 1e3e d9af 793d
00000280: 59b4 4e3e 82f4 ffbd 6ae6 953d eafd 283e
00000290: e71a 13be 4842 b4be cdc5 c9bd c290 93bd
000002a0: d228 e2bd a2d9 1abf a0ad c33d 6541 06be
000002b0: a648 f03d 4b32 f03d 8404 da3b 4d14 92bd
000002c0: f772 213e 73af af3b 034f dcba 19e2 03be
000002d0: 913d 80bf f192 dc3d 3261 723e 4936 153e
000002e0: 510f 693d ad29 963d bc61 01bc b2e3 07bf
000002f0: acee b13c f783 223e 467a 483d 57c5 273e
00000300: 428d 753e 7181 ea3d 2155 82bd 2c9a d0bd
00000310: c562 1f3e 7b04 7e3d da1a 8e3d d060 80bd
00000320: 7ecb 1cbe 630f 29bd a9b0 59bd 1738 d43d
00000330: b34b 5f3e 22d2 a23d 348c 253d 0f5f 14bd
00000340: e637 92be 6ab6 d63d 48e1 91be 41ce a0be
00000350: 8f55 e63d a4cc 613e 3760 373d c9f8 93bd
00000360: 1a8e 8e3d 9fd1 a03d 5e5d af3c aea5 f2bd
00000370: f972 503c 0af8 48be e139 013e 5880 5a3c
00000380: 6414 17bf 24f6 c5be 27c8 893d 8a9a 99be
00000390: 28f2 103e 7ce1 01bf 40c1 073e d2ee 2d3d
000003a0: bbcb 93be efac 593e 0fe8 e8bc 0863 b5bc
000003b0: 4f61 ae3d 94f1 83be 8839 b1be 706c 853d
000003c0: 71f2 8abe 76be 9c3d 4b23 e53c 5524 c63d
000003d0: db14 793e e353 64be 768f 87bc c5be 3f3e
000003e0: 1cf2 b3bd f669 29be 0656 233e b0ce 6f3d
000003f0: 3ccb d7bc 4d5c b4be e3be 41bd d228 4b3e
0.19954525 0.16359767 0.044541012 0.115119 0.15884697 0.048867144 -0.29135472 -0.10668221
0.043431584 -0.098569825 -0.16140376 0.14970346 0.11929613 0.16769272 0.80132484 -0.11875637
0.13495803 -0.13709436 0.04292079 0.10348198 -0.3586049 0.102559686 0.038950067 0.043976765
-0.017278314 -0.3002006 -0.093083195 0.13465446 0.094051704 -0.07714624 0.1297802 -0.0004610003
0.07302819 -0.017095026 0.1060013 0.097775206 0.6286053 0.18307775 0.18708481 -0.14448161
0.3456103 0.8376487 0.06776847 -0.017874826 0.09821227 0.024697661 0.48303145 -0.08539025
-0.05170874 -0.09188892 0.03268326 0.11960649 1.1325022 0.14160594 -0.000426733 0.00048677792
0.10672111 -0.0003417405 0.05969215 0.8099193 -0.12734848 0.102333955 0.030395793 -0.12921302
0.02611749 0.13229698 0.124404095 0.08400588 -0.15905665 -0.16189285 0.11000829 0.062418453
-0.082316145 0.09644673 0.4242443 0.078725964 0.085248135 0.016323224 0.17229667 0.14491916
0.01093577 -0.04045386 0.3323253 0.29712933 -0.06636171 0.081350364 0.102451615 0.20683536
0.004560038 -0.038344063 0.13288209 0.3246731 -0.18021597 0.08642803 0.049803082 0.17033018
0.8795854 0.09588262 0.051399976 0.4065786 -0.0057299235 0.85739547 0.087192886 0.1234475
0.052510243 -0.001983258 0.023157103 0.17189702 -0.040527206 0.42705595 0.27739435 0.07611794
0.04892215 0.031669486 0.023475848 -0.11866955 0.02688614 0.49871108 0.040793587 0.12918583
0.019279521 -0.025116004 0.072547756 0.024779176 0.07885548 0.25566316 -0.013190007 -0.0058586737
-0.00053448166 0.119434424 -0.071988806 -0.091437235 -0.049910724 0.02432231 0.11788521 0.03237049
0.03867767 -0.08011934 0.15767498 0.061423346 -0.10106687 -0.14805736 -0.3468627 0.1403256
-0.04535958 0.17165175 -0.039255492 -0.1377871 0.050412726 0.0582577 -0.047737706 0.033852883
-0.12717111 0.0127504235 0.17336167 0.04812147 0.098072626 0.11450591 0.15434556 0.060958717
0.20185985 -0.12497808 0.073193386 0.1650311 -0.14365731 -0.3520682 -0.09852181 -0.07205345
-0.11042942 -0.6048833 0.09554601 -0.13110884 0.117326066 0.117283426 0.0066533703 -0.07132778
0.15766512 0.0053614913 -0.0016808215 -0.12879218 -1.0018789 0.10770214 0.2366989 0.1457149
0.056899372 0.07332168 -0.007896837 -0.5308181 0.021720253 0.15870653 0.048944734 0.16383873
0.23979667 0.1145047 -0.06363893 -0.10185656 0.15565021 0.06201599 0.06938715 -0.062684655
-0.15312001 -0.04127444 -0.053146992 0.10362261 0.2180622 0.07950236 0.04041691 -0.036223467
-0.28558272 0.104840115 -0.28492188 -0.3140736 0.11246788 0.2205072 0.044769492 -0.072251864
0.069606975 0.07852482 0.021406826 -0.11848007 0.012722724 -0.1962587 0.12619735 0.013336264
-0.5901549 -0.38664353 0.06727629 -0.30000716 0.14154875 -0.50734687 0.13257313 0.042464085
-0.28866372 0.21257375 -0.028430967 -0.022141948 0.08514654 -0.25770247 -0.34614205 0.065148234
-0.27138093 0.07653515 0.02797093 0.096748985 0.24324362 -0.22297625 -0.0165479 0.18725117
-0.08786413 -0.16544327 0.15950784 0.058546722 -0.026342027 -0.3522667 -0.047301184 0.1983979

network.4.bias f4 [64]
00000000: cb41 863d 1a8b ce3d 6d7b b93d 3da8 913d
00000010: 9aab 30bd 1c28 163e 6d7f 42bc ff52 a7bc
00000020: c34f 933d b06d 8fbc 2896 063e 66d8 bc3d
00000030: e32f a83d 265e 303d a04d e23d 06af 21bc
00000040: d4cf c73c 298c ae3d 37d8 f53d d8b2 5c3d
00000050: c916 1d3d 1662 ce3d 59e0 9e3c 5c40 ef3c
00000060: 1275 7c3d 0182 e63c 53f6 e13d cb5b 2c3b
00000070: 210a 083e 56e8 de3c 6d71 603d c919 763d
00000080: 0dc7 ef39 a09d d13d cf7d 083d f181 8ebc
00000090: e227 4dbc 6a2a 373e 2ab0 d13d 136c 283d
000000a0: 09bc f83d 3669 163e 867b 043d 48db 073e
000000b0: 538b 9e3d 36be 243e 7c70 8b3b 152b 493e
000000c0: 9db7 a9bd 1ba2 233d 318d 74bc 01fc 2ebc
000000d0: af89 96bc a812 833d b4aa 163e 4d5c 1e3e
000000e0: 507f 173e 7e07 2e3d a605 2b3e 4c1d f3bc
000000f0: fcc5 383e 56d7 ca3d 6b36 143e 885a 0bbd
0.06555518 0.10085125 0.09056745 0.07112167 -0.043132402 0.14663738 -0.011871201 -0.020425318
0.07192948 -0.017508358 0.13143218 0.09220962 0.08212259 0.043058537 0.11049962 -0.009868389
0.024391092 0.08522827 0.1200413 0.053881496 0.038351808 0.10077302 0.019394087 0.029205494
0.061635084 0.028138163 0.11033311 0.002629983 0.13285114 0.027210396 0.05479567 0.060083184
0.00045733937 0.10235143 0.033323105 -0.017395945 -0.012521716 0.17887273 0.10238679 0.041118693
0.1214524 0.14688572 0.032344364 0.13267243 0.07741418 0.16088185 0.0042553525 0.1964534
-0.082869746 0.039949518 -0.014926241 -0.0106802 -0.0183762 0.06400043 0.14713556 0.15464897
0.1479466 0.042487614 0.16701373 -0.029677056 0.18044275 0.09904353 0.14473884 -0.034021884

network.6.weight f4 [14, 64]
00000000: 9c5b 893e 9ac5 26be 2ac3 fe3d 85ae e6bc
00000010: d41c 533d 88b7 54bd 79b1 eaba 7225 183e
00000020: 2292 6f3d eedb b23d 08a0 08be 11f0 023d
00000030: 1c0c 193d 9094 25be fe47 233d 6875 40bd
00000040: 2d82 0fbe 5bce 1f3d 6a1e 77bd a1e9 383e
00000050: 9456 b7bd 9089 e13c 36cb 953d d293 68bd
00000060: 3164 7d3e fc6a 793e c0b3 2b3d 24ac 7b3d
00000070: 7699 083c a740 d93e 3356 6d3c fc43 323e
00000080: 017e e03d 259e c03d afe4 793c b107 59bd
00000090: c1d2 823d 857f 3cbe baa2 33bd 0cd3 913b
000000a0: 3f27 173d fba8 b23d 3b71 6e3e 05df 19be
000000b0: 900f d3bd 06f2 69bd 81dc 863e fb50 c83c
000000c0: bed3 c8bd 634f 7fbd e367 69bd 39c5 903d
000000d0: f671 463d 2fc9 243e ffdf 35bd 8fc9 083e
000000e0: adde d8bd 663b 0d3e 8905 64be cb94 87be
000000f0: de38 bb3d 030a e53c ae43 753c 9fa9 103e
00000100: fee7 8d3e dd10 123d 6b85 0b3e 38d5 a93d
00000110: 1c04 84bd 8240 1abe 4dc4 8b3d ba76 c53c
00000120: 1cd3 9e3d aab5 d43d b472 8c3c 75f3 1a3d
00000130: ea38 393e f841 65bc e445 413e a99c 63bc
00000140: a348 023d 6732 f8bc 5507 06bd 06ab 863e
00000150: 70f1 703e 5dc0 dcbc b221 a83d e080 e9bd
00000160: 3d98 413e fd29 983e bc11 e73c 2a7a 8d3d
00000170: 533f ac3c dcc2 8ebd c1ae 07bd 088d 11bd
00000180: 0764 87bd 277e 403d 4827 9aba 845a c0bd
00000190: b2a6 1fbd a34b 25be a182 c33d 3696 a63d
000001a0: b281 d0bd c6a8 c7bd 86ab 4a3e 31f4 a0b9
000001b0: bd1b 953d bc0f 18bd 7a3c 3d3e 56fb 2e3d
000001c0: f878 adbd a11d 35bd adde 4cbd 783b 70bd
000001d0: cfc4 6a3b 9f30 5d3e ce1d 5abe fc5c 0bbc
000001e0: 4035 56be 0123 4d3d f2da 4dbe a276 36be
000001f0: 3880 abbd d690 6e3d 505a c8bd df1d ac3d
00000200: cb29 9a3e 70a2 3fbd 1456 18bd c83c 003e
00000210: 6cc3 ea3c 916b fabd e09f b33c 30b1 563e
00000220: 5e4f b03d d537 83bd 36ed 133d ab8b ff3d
00000230: 051b f23d ce72 84be 6ef6 673e b5ad b33c
00000240: 422e 05be 7632 a1bc 47c6 2cbd 5b7f 873e
00000250: c41c 563d 1ee4 26bc b62d 263e 2633 bdbd
00000260: d921 9d3d b3be 483e 7ec6 2fbc e3ca e1bc
00000270: 8a7a 2c3e 095c a03e 919b b6bb 17f2 4d3d
00000280: 4dd8 c0bd 0e09 da3d 8b83 83bd 89ac bbbd
00000290: 26e4 353d 2448 7abe e20d 943d 708b c6bd
000002a0: e05e 48be fa75 4cbd cb70 083b 8c4e c7ba
000002b0: 4f84 e73d aeb7 04bd 3a3c 633d 2e9d 02bd
000002c0: 5cc3 c13d cccf a23c 24f3 1abd 71ae 67bd
000002d0: 7096 8a3d b800 6f3e 2e20 8fbd 3a4a 4b3d
000002e0: 51c9 71bd 00bd 73bd 497a fbbd 93f6 18be
000002f0: e97d 993d 56a1 213d 6f9d 45be a7b5 d23c
00000300: 3989 9c3e 10e3 12be 1117 7d3d 56f7 5b3e
00000310: fe0e 5fbc eac3 abbd 22c4 26bd d79e a53d
00000320: ae1c 103d e50d 48bc e9b2 133e 2cd3 3b3e
00000330: cb5c 933d 3ddb 0bbe 3338 083e 5732 943d
00000340: 3518 04be 90b6 96bc c047 063d 95b9 d93d
00000350: 55a5 c33d 65a7 9cbd af40 0b3e 9219 503e
00000360: 8614 883e c180 013e 7627 de3c 0673 64bb
00000370: 98d4 a13c e085 163e 466c 3e3c 2e85 ff3c
00000380: fc33 bdbc c67f 0fbd 7ae7 cdbc 58e6 c83c
00000390: e47c a0ba d713 fdbd f319 94bd 20fc adbb
000003a0: 8efc b53a 95de e4bc 1096 363e 4418 bb3d
000003b0: dee0 8a3c 4f0e 413d 2885 1d3d 3a41 00be
000003c0: 7cbd 9abd 492b 10be 600d c53c b0fc 6e3a
000003d0: 3cdd 01be 3ffa 183e 103d b7bb 6078 8f3d
000003e0: 4f0d 4ebe 7c9e 753e 2b4f 68be bb35 2dbe
000003f0: 25d0 1ebd 2650 0c3d 7050 d2bd 9eca 1a3d
0.26827705 -0.16286317 0.12439568 -0.02815939 0.051541165 -0.05193284 -0.0017905674 0.14858034
0.058488972 0.087333545 -0.13342297 0.031967226 0.037365064 -0.16169953 0.03986358 -0.046986967
-0.14014502 0.039015155 -0.06033174 0.18057872 -0.0895206 0.027531415 0.0731415 -0.056781597
0.24745251 0.24357218 0.04191947 0.061443463 0.008337369 0.42432138 0.0144858835 0.17408746
0.10961533 0.09405164 0.015252276 -0.05298585 0.06387854 -0.1840802 -0.04385636 0.0044502076
0.036902662 0.08723637 0.23285381 -0.15026481 -0.10305703 -0.057115577 0.26340106 0.024452677
-0.098060116 -0.06233157 -0.05698384 0.07068867 0.048448525 0.1609237 -0.044403072 0.13358139
-0.10589347 0.1379219 -0.22267736 -0.26480708 0.09141706 0.027958876 0.014969749 0.14127205
0.27716058 0.035660613 0.13625114 0.082926214 -0.06446096 -0.1506367 0.06824551 0.024104465
0.0775511 0.10386212 0.017144538 0.037829835 0.18088117 -0.013992779 0.18874317 -0.013892331
0.031807553 -0.030297471 -0.032721836 0.26302356 0.23529601 -0.026947195 0.08209552 -0.11401534
0.1890573 0.29719535 0.028206699 0.069080666 0.02102629 -0.0697076 -0.033125643 -0.03553489
-0.066108756 0.04699531 -0.0011760974 -0.093922645 -0.038977332 -0.16142134 0.095464 0.08134119
-0.101809874 -0.09748988 0.19791993 -0.00030699515 0.07280681 -0.03712438 0.18480101 0.04272016
-0.084703386 -0.04421771 -0.050017048 -0.058650464 0.0035822873 0.21600579 -0.21300432 -0.008506056
-0.20918751 0.05008221 -0.20103052 -0.17818692 -0.08374065 0.058243595 -0.09782851 0.08404135
0.3011001 -0.04678577 -0.037191465 0.12523186 0.028657638 -0.12227548 0.02192682 0.20966029
0.08608888 -0.064071335 0.036114894 0.124778114 0.1182156 -0.2586884 0.22652599 0.021933416
-0.13005927 -0.019677382 -0.04218128 0.26464352 0.052273527 -0.010186223 0.16228375 -0.092382714
0.076724716 0.19603996 -0.010728477 -0.027562564 0.1684362 0.31320217 -0.005572744 0.050279703
-0.09416256 0.10646258 -0.06421574 -0.09163768 0.044407032 -0.24441582 0.072292104 -0.09694564
-0.19567442 -0.0499172 0.0020819183 -0.0015205904 0.11304533 -0.032401733 0.05547736 -0.03188818
0.0946109 0.019874476 -0.037829533 -0.056562845 0.06766975 0.23340118 -0.0698856 0.049631335
-0.05902988 -0.059506416 -0.122791834 -0.1493781 0.074947186 0.039460503 -0.19298337 0.025721384
0.30573443 -0.1434443 0.061789576 0.2148107 -0.013614414 -0.08386977 -0.04071439 0.08086937
0.0351836 -0.012210344 0.14423718 0.18342274 0.07195433 -0.13657852 0.13302688 0.07236164
-0.12899859 -0.0183976 0.03278327 0.106311 0.09553019 -0.076491155 0.13598894 0.20322254
0.26578158 0.12646772 0.027118426 -0.0034858598 0.019754693 0.14699507 0.011622494 0.031191435
-0.023096077 -0.035033964 -0.02513479 0.024523899 -0.0012244252 -0.123573 -0.07231512 -0.0053095967
0.0013884471 -0.027938167 0.17830682 0.09135488 0.016952928 0.047132786 0.038457066 -0.12524882
-0.075556725 -0.14079012 0.02405423 0.0009116633 -0.1268205 0.14939211 -0.005591996 0.070053816
-0.20122264 0.23986238 -0.2268645 -0.16915028 -0.03877272 0.034256123 -0.102692485 0.037790887

network.6.bias f4 [14]
00000000: e484 883d 1b6a 0e3e e289 533c 5adf bdbd
00000010: 9eea 27bd 5c44 79b8 8f01 833d 4df7 1c3b
00000020: ba74 8abd 3250 263d f536 71bd 475c 153e
00000030: 06cd b6bd cf9e e83d
0.06665972 0.13907664 0.012911292 -0.092711166 -0.040995233 -5.942989e-05 0.06396782 0.0023951114
-0.06760545 0.040603824 -0.0588903 0.14585982 -0.08925824 0.11358415
