app/services/mahjong_ai/models/v1.0.pth (torch, 308096 bytes, 8 tensors)

network.0.bias f4 [256]
-0.18749554 -0.108627655 -0.2285988 -0.18191624 -0.010146604 -0.5355191 -0.09052217 -0.10442191
-0.16879052 -0.1772983 -0.105299205 -0.06644365 -0.042531207 0.17812143 -0.0666059 -0.09819344
-0.14442927 -0.18748766 -0.18385568 -0.023770485 -0.16896714 0.68206346 -0.03254789 -0.07741124
-0.28648657 -0.009023014 0.50148576 -0.08310694 -0.14752163 -0.10331714 -0.2503912 -0.15804356
-0.0047290795 -0.053494558 -0.09015955 -0.07711213 -0.00955978 0.6272712 -0.16569875 -0.15191288
0.111603655 0.17951785 -0.12716 -0.113461 -0.09380053 0.010731499 -0.0942922 -0.09916613
0.035686884 0.009564435 -0.4248474 -0.17381524 -0.104255736 -0.09086289 -0.10772493 -0.040082816
-0.22564681 0.48356003 0.016434696 0.50162286 -0.3142441 -0.13819416 0.21794459 -0.090246625
0.012012786 0.033379767 0.5721764 -0.13458273 -0.12821503 -0.073514216 -0.042416904 0.72624487
-0.1167625 -0.010189915 -0.09442029 0.032261286 -0.11487426 -0.10685651 0.06530666 0.017918268
-0.035066348 -0.11928534 0.018299567 0.04439702 -0.04801235 -0.025499428 -0.046134118 -0.2385917
-0.094845295 -0.21167955 -0.22712423 -0.011155427 -0.050886434 -0.021290869 -0.011327612 -0.70003617
-0.26792815 -0.106522605 0.62854594 -0.06621337 -0.093749605 -0.12649563 -0.16312535 -0.19129208
0.17573902 -0.010321511 0.027254822 -0.086788535 -0.12655786 -0.03690577 0.007692851 -0.3899857
-0.0836047 -0.051052775 -0.09085415 -0.092743665 -0.08967906 -0.06821602 -0.011362567 0.014800866
0.0073759677 -0.04326094 -0.16556679 -0.18134862 -0.088964395 -0.13994217 -0.14686769 -0.14773041
-0.22620186 0.017473796 -0.060796764 -0.09311935 -0.13686174 0.0036888383 -0.07656234 -0.015263978
0.006309551 -0.115859546 -0.5188699 -0.06990836 -0.06142188 0.3591855 -0.4797874 -0.065731436
-0.061807085 -0.021690967 -0.12558782 -0.08097861 -0.07080965 -0.078652196 -0.14981088 -0.2233118
-0.026228901 -0.049467884 -0.090296656 0.47389105 0.015133684 0.78729373 0.5851989 -0.06798974
-0.21734266 -0.15472502 -0.060133003 -0.1271438 -0.42173588 0.01976675 -0.32430238 -0.057490766
-0.22514018 -0.041826233 -0.09350089 -0.17657174 0.70854354 -0.052217375 -0.20185487 0.62010354
-0.07430465 -0.42914128 -0.07572333 0.09157499 -0.08525603 -0.15145475 -0.23071496 -0.16449116
0.47572073 -0.17184898 0.48634428 -0.026980482 -0.0661487 -0.093279086 -0.03232808 0.2328161
-0.06702135 -0.6324918 -0.059223518 -0.031200346 -0.13938564 -0.1378621 0.2696005 -0.05558376
-0.07880188 -0.098434776 0.10795616 -0.1700521 0.009277792 -0.056101568 0.6288947 -0.11985389
-0.2320197 -0.2585112 -0.05253208 -0.013676744 -0.07211117 0.6852663 -0.22273289 -0.050861374
-0.30875623 0.52085465 -0.027094167 -0.0131397545 -0.0142385615 -0.08405378 -0.02488425 -0.15773876
-0.0826175 -0.15612336 -0.07336627 -0.22676952 -0.12797262 -0.07367589 0.08754349 0.02627546
-0.10629656 -0.094370455 -0.11443883 -0.054242276 -0.023656173 -0.06710347 -0.08445193 -0.119688496
-0.045701653 -0.2794507 -0.12053074 -0.10603175 -0.107223146 0.010614602 -0.6444521 -0.051719334
-0.2184926 -0.2280472 -0.6471352 -0.08461406 0.45354065 -0.21389283 -0.17435597 -0.024490424
00000000: d5fe 3fbe 2d78 debd ce15 6abe 4048 3abe
00000010: f13d 26bc c817 09bf b063 b9bd 28db d5bd
00000020: 6cd7 2cbe b08d 35be 1ca7 d7bd 9c13 88bd
00000030: 3435 2ebd 7765 363e ad68 88bd a419 c9bd
00000040: 44e5 13be c4fc 3fbe aa44 3cbe 52ba c2bc
00000050: b905 2dbe b69b 2e3f f050 05bd c989 9ebd
00000060: 5eae 92be 44d5 13bc 5f61 003f f933 aabd
00000070: e90f 17be f097 d3bd 4633 80be 2cd6 21be
00000080: 65f6 9abb 1c1d 5bbd 92a5 b8bd f7ec 9dbd
00000090: a0a0 1cbc d894 203f efac 29be 0d8f 1bbe
000000a0: 7590 e43d 87d3 373e 3b36 02be 3e5e e8bd
000000b0: 7e1a c0bd 2bd3 2f3c 451c c1bd 9d17 cbbd
000000c0: 692c 123d 26b4 1c3c 9985 d9be 9ffc 31be
000000d0: 0884 d5bd 5316 babd e39e dcbd e12d 24bd
000000e0: f50f 67be 2e95 f73e 0ea2 863c 5b6a 003f
000000f0: 9ae4 a0be c582 0dbe de2c 5f3e 39d3 b8bd
00000100: 47d1 443c 39b9 083d 277a 123f 0ed0 09be
00000110: cd4a 03be 9f8e 96bd 59bd 2dbd 2feb 393f
00000120: 2d21 efbd 9af3 26bc 6d5f c1bd 6924 043d
00000130: 3243 ebbd 96d7 dabd 80bf 853d 55c9 923c
00000140: bba1 0fbd df4b f4bd f9e8 953c a6d9 353d
00000150: 99a8 44bd 2de4 d0bc 21f7 3cbd 6251 74be
00000160: 403e c2bd 86c2 58be 4193 68be 41c5 36bc
00000170: 4b6e 50bd 306a aebc 7397 39bc 9235 33bf
00000180: e12d 89be 8628 dabd 63e8 203f e09a 87bd
00000190: cbff bfbd 1288 01be 550a 27be 12e2 43be
000001a0: eef4 333e 8e1b 29bc 8145 df3c 30be b1bd
000001b0: 6298 01be 812a 17bd 5014 fc3b 35ac c7be
000001c0: f138 abbd b71c 51bd be11 babd 64f0 bdbd
000001d0: a8a9 b7bd d7b4 8bbd 0f2a 3abc 557f 723c
000001e0: 1ab2 f13b 6232 31bd 578a 29be 74b3 39be
000001f0: f732 b6bd 004d 0fbe 7c64 16be a446 17be
00000200: 76a1 67be 3525 8f3c 0706 79bd 5cb5 bebd
00000210: 7c25 0cbe 70c0 713b b7cc 9cbd c415 7abc
00000220: 5ac0 ce3b c547 edbd a8d4 04bf 1d2c 8fbd
00000230: 8295 7bbd 29e7 b73e b2a6 f5be 349e 86bd
00000240: 6d29 7dbd 41b1 b1bc 189a 00be 1dd8 a5bd
00000250: a604 91bd 6714 a1bd 0668 19be d9ab 64be
00000260: fedd d6bc d69e 4abd 74ed b8bd d9a1 f23e
00000270: 45f3 773c 158c 493f 98cf 153f 343e 8bbd
00000280: 138f 5ebe 3c70 1ebe 064e 76bd fc31 02be
00000290: c4ed d7be e1ed a13c f60a a6be 707b 6bbd
000002a0: 268b 66be fc51 2bbd 657d bfbd 39cf 34be
000002b0: 1c63 353f e3e1 55bd 0bb3 4ebe 1bbf 1e3f
000002c0: 092d 98bd 68b8 dbbe d514 9bbd ab8b bb3d
000002d0: b79a aebd f416 1bbe 8b40 6cbe 5f70 28be
000002e0: ab91 f33e 2ef9 2fbe 1e02 f93e 2c06 ddbc
000002f0: f878 87bd 1b09 bfbd 736a 04bd 5867 6e3e
00000300: 7d42 89bd fcea 21bf 5c94 72bd de97 ffbc
00000310: 1cbb 0ebe b92b 0dbe 1409 8a3e ccab 63bd
00000320: e162 a1bd 2c98 c9bd 1f18 dd3d 2322 2ebe
00000330: e101 183c c2ca 65bd 3eff 203f f575 f5bd
00000340: 9296 6dbe 945b 84be e12b 57bd 6c14 60bc
00000350: 05af 93bd 9d6d 2f3f 1714 64be 0454 50bd
00000360: 4c15 9ebe bb56 053f 96f4 ddbc 2048 57bc
00000370: db48 69bc 6324 acbd 0eda cbbc 4586 21be
00000380: 5d33 a9bd cdde 1fbe 0e41 96bd 4536 68be
00000390: 410b 03be 63e3 96bd 004a b33d a23f d73c
000003a0: 03b2 d9bd 4c45 c1bd e85e eabd 262d 5ebd
000003b0: 97ca c1bc 8b6d 89bd 22f5 acbd 3e1f f5bd
000003c0: a831 3bbd 2a14 8fbe d2d8 f6bd 2d27 d9bd
000003d0: cf97 dbbd dee8 2d3c d0fa 24bf a7d7 53bd
000003e0: 86bc 5fbe 3585 69be a7aa 25bf 234a adbd
000003f0: 7b36 e83e b906 5bbe 5f8a 32be 24a0 c8bc

network.0.weight f4 [256, 133]
-0.5808791 -0.0725559 -0.18486719 0.7682343 0.5451672 -0.023116685 0.26034856 0.105182745
0.3204862 -1.0519882 -0.13680401 0.020609051 0.37082556 0.39448977 -0.21356882 -0.41845962
-0.6454196 -0.47252908 -0.85849327 -1.591114 -1.0834894 -1.1567155 -0.71263385 -0.8267002
-0.70896155 -0.838348 -0.8576999 -0.84055513 -1.3550224 -1.0310227 -0.38226214 -0.86111856
-0.67845577 -0.14348584 -0.14442466 -0.27946496 -0.061828863 0.20091519 -0.00803211 -0.106579095
-0.1382285 0.17670964 0.17384376 -0.06133781 -0.5492633 0.10294594 0.057273813 0.103470154
0.103419915 0.21767756 -0.17021178 0.15572785 0.08373928 0.1693327 0.15164115 0.12176099
0.19659914 0.0886108 -0.24562259 -0.11642821 0.047834832 0.01754318 -0.2839936 -0.34576878
-0.1634642 -0.26357678 -0.20239344 -0.20982936 0.06957939 0.45234868 -0.17877594 -0.24501048
-0.041181263 0.3805284 0.39211366 0.3862168 0.035970487 -0.022188138 0.2419851 0.24073632
0.09745939 0.18341066 0.22388236 0.18004785 -0.4141355 -0.15290664 -0.3711125 0.09217483
0.039922077 -0.050443098 0.0037410678 -0.32684344 -0.25779125 0.013937664 -0.026075548 -0.6332511
-0.111091785 0.07695282 0.11763983 0.299231 0.090175614 -0.39360246 0.22484337 0.14976887
0.16174914 0.24355431 0.15158893 0.14455067 -0.2724808 -0.2565006 -0.0909431 -0.15143223
0.18268323 0.03235137 -0.06684492 0.22346105 -0.07216021 0.16792959 0.3454363 -0.6754117
-0.26067993 0.02090062 0.20352559 -0.13209642 0.32662198 0.09109772 0.18474688 0.083791494
0.154157 0.1609212 0.25060388 0.14669208 -0.0042847777 0.14757684 0.09640872 0.054990284
-0.055057753 0.030641532 -0.3010047 -0.029233519 -0.0451152 0.018038264 -0.018858057 0.05895137
-0.06859026 0.06617182 -0.24837196 -0.084267616 -0.11760204 -0.17291918 -0.17765792 0.04869105
-0.16249207 -0.037229348 -0.17572851 -0.13622202 -0.01469778 -0.08595387 -0.074260674 -0.17690308
-0.042051684 -0.0649834 0.039041527 0.0564813 -0.10629297 0.007047116 0.21387129 -0.12728643
-0.02422705 -0.088793434 -0.10815146 0.06752715 -0.047396775 -0.10810719 0.04112622 -0.117148906
-0.04870026 -0.010302308 -0.031377524 -0.18742637 0.00787404 -0.060319852 0.17041814 0.15165244
-0.032084342 0.101163514 0.12532555 0.123810716 0.078356124 0.09342756 -0.032293823 -0.17227626
-0.08516675 -0.01431754 -0.123685114 -0.07478313 -0.008241695 -0.02238927 -0.027669325 0.078215346
-0.054673433 0.019225128 0.04620276 -0.12291988 0.09272972 -0.14486149 -0.026310423 -0.05199235
0.07549168 0.2348591 0.06267546 0.08693055 0.001971267 0.029593734 0.09978367 0.09630983
-0.022085872 -0.26109034 -0.009809789 -0.050825458 -0.090975605 -0.1520776 -0.020495122 -0.017243866
0.020421308 -0.06921912 -0.030994337 0.0049561625 -0.15036315 -0.04397081 0.011605973 -0.032523863
0.08321304 0.07760252 0.06423127 0.12240567 0.10877123 0.11374123 0.017841121 -0.012827525
-0.020473236 0.12872688 0.058331605 0.013510378 0.042633012 -0.020510478 -0.08559057 -0.056699872
-0.01788948 0.0071965903 0.03426323 0.024699887 -0.011082692 -0.035688538 0.07619279 0.081829846
00000000: 7eb4 14bf 3098 94bd d34d 3dbe 01ab 443f
00000010: 1490 0b3f 345f bdbc 684c 853e 0d6a d73d
00000020: c416 a43e 8da7 86bf 5a16 0cbe 50d4 a83c
00000030: d9dc bd3e 90fa c93e c9b1 5abe 5740 d6be
00000040: 383a 25bf 55ef f1be 37c6 5bbf a0a9 cbbf
00000050: c8af 8abf 410f 94bf 2c6f 36bf a0a2 53bf
00000060: 817e 35bf f99d 56bf 3892 5bbf 9f2e 57bf
00000070: 6071 adbf 8df8 83bf ddb7 c3be 4472 5cbf
00000080: 47af 2dbf f4ed 12be 0fe4 13be 0816 8fbe
00000090: 4340 7dbd b6bc 4d3e 1c99 03bc 2446 dabd
000000a0: c68b 0dbe 5ff3 343e 1904 323e 5b3d 7bbd
000000b0: 859c 0cbf 52d5 d23d f297 6a3d 29e8 d33d
000000c0: d2cd d33d dee6 5e3e ff4b 2ebe 1f77 1f3e
000000d0: 807f ab3d 8d65 2d3e d147 1b3e d35d f93d
000000e0: 4951 493e 9479 b53d 7d84 7bbe ea71 eebd
000000f0: 75ee 433d b7b6 8f3c 9c67 91be 9b08 b1be
00000100: 2963 27be 89f3 86be 3a40 4fbe 82dd 56be
00000110: a47f 8e3d 3f9a e73e 0a11 37be 07e4 7abe
00000120: afad 28bd 9ed4 c23e 1fc3 c83e 35be c53e
00000130: ca55 133d e6c3 b5bc f1ca 773e 9583 763e
00000140: ca98 c73d 01d0 3b3e 6b41 653e 775e 383e
00000150: 9109 d4be 8f93 1cbe 7502 bebe 28c6 bc3d
00000160: 5585 233d 6c9d 4ebd b42c 753b 0658 a7be
00000170: 37fd 83be cd5a 643c 639c d5bc be1c 22bf
00000180: 1784 e3bd 7199 9d3d 27ed f03d ce34 993e
00000190: fead b83d 4386 c9be 573d 663e 035d 193e
000001a0: 91a1 253e 4d66 793e 213a 1b3e 1705 143e
000001b0: 9a82 8bbe 0c54 83be 6040 babd 0d11 1bbe
000001c0: 5011 3b3e df82 043d fde5 88bd f9d2 643e
000001d0: bbc8 93bd bcf5 2b3e 07dd b03e c8e7 2cbf
000001e0: d777 85be c737 ab3c 0369 503e 4944 07be
000001f0: ff3a a73e 7191 ba3d 492e 3d3e e09a ab3d
00000200: 55db 1d3e 87c8 243e 274f 803e 7336 163e
00000210: 5267 8cbb 621e 173e ef71 c53d 7e3d 613d
00000220: 3d84 61bd f303 fb3c 4a1d 9abe 227b efbc
00000230: b7ca 38bd fbc4 933c 367c 9abc fe76 713d
00000240: 0d79 8cbd 1785 873d 3855 7ebe 8094 acbd
00000250: 57d9 f0bd ba11 31be f5eb 35be 4470 473d
00000260: 5264 26be cd7d 18bd 2df2 33be c97d 0bbe
00000270: f5ce 70bc 9508 b0bd fb15 98bd 1526 35be
00000280: 633e 2cbd 0416 85bd 02ea 1f3d f058 673d
00000290: 21b0 d9bd 7eeb e63b 1301 5b3e 6057 02be
000002a0: ce77 c6bc 55d9 b5bd 837e ddbd ad4b 8a3d
000002b0: 1f23 42bd 4d67 ddbd f873 283d c4eb efbd
000002c0: ed79 47bd 03cb 28bc b885 00bd b3ec 3fbe
000002d0: 1e02 013c f311 77bd 1882 2e3e c74a 1b3e
000002e0: df6a 03bd d12e cf3d 5755 003e 7990 fd3d
000002f0: 2d79 a03d f356 bf3d 8746 04bd 3069 30be
00000300: e86b aebd 1e94 6abc 9f4e fdbd e627 99bd
00000310: 2d08 07bc b469 b7bc c8aa e2bc 5e2f a03d
00000320: 40f1 5fbd 047e 9d3c 1b3f 3d3d 6bbd fbbd
00000330: 14e9 bd3d 9256 14be f588 d7bc eef5 54bd
00000340: 629b 9a3d e77e 703e fe5b 803d a508 b23d
00000350: 5f30 013b 8f6e f23c 615b cc3d 173e c53d
00000360: 6eed b4bc a2ad 85be 3db9 20bc 5b2e 50bd
00000370: 6b51 babd 3bba 1bbe 63e5 a7bc 0243 8dbc
00000380: 964a a73c c1c2 8dbd d6e7 fdbc 4e67 a23b
00000390: ccf8 19be bc1a 34bd fb26 3e3c be37 05bd
000003a0: 996b aa3d 12ee 9e3d af8b 833d d3af fa3d
000003b0: 73c3 de3d 29f1 e83d 8b27 923c 8a2a 52bc
000003c0: 7db7 a7bc fbd0 033e 1fed 6e3d a25a 5d3c
000003d0: f49f 2e3d 9705 a8bc 1c4a afbd 203e 68bd
000003e0: f58c 92bc 60d1 eb3b 9a57 0c3d 6b57 ca3c
000003f0: 2e94 35bc 252e 12bd f70a 9c3d 6896 a73d

network.2.bias f4 [128]
0.00867004 -0.71972024 -0.00050683686 -0.037953056 -0.010786611 0.0031609363 -0.013492673 -0.10691805
-0.08414239 -0.0055734785 0.18495734 -0.23506993 -0.048399743 -0.053647827 -0.039275438 0.080873325
-0.10773726 0.12518558 0.17806965 0.075885236 -0.03708323 -0.48109522 -0.04873168 -0.1835647
0.16219513 0.22105636 0.32365733 -0.034824472 0.6087945 0.11908527 0.11074257 -0.004876665
0.05023649 -0.10456523 -0.022532819 -0.019056665 0.11219961 0.3710138 -0.052977715 0.9210282
0.16754103 -0.13412938 -0.14778207 -0.07798737 0.17115021 0.040301476 -0.083583064 -0.5057445
-0.061284754 -0.04353453 0.0801201 0.13656247 -0.02139317 -0.21406645 -0.3512348 -0.07190119
0.050576672 0.047097966 0.0980578 -0.030435612 0.012255012 -0.09604704 -0.017735012 0.023473958
-0.099162854 0.058218483 0.23087433 -0.05632014 -0.15188591 0.07809958 -0.0995847 0.03413151
-0.025751358 0.081239976 0.03164047 -0.30541608 -0.058946062 0.44244614 -0.21573408 0.009684166
0.0642903 -0.14108567 0.07062495 -0.016333563 0.002620784 0.08536621 0.122615755 -0.20379595
-0.11479121 -0.10067128 -0.013352916 -0.04224129 -0.3098427 -0.03447744 0.14475387 0.23065747
-0.08897765 -0.08115013 0.23487331 -0.037485395 -0.06392636 0.022121366 0.043602988 -0.009690581
-0.07660429 0.26795253 -0.105606586 0.014787546 0.012843528 -0.027084453 0.0049708206 0.4215907
0.027325176 -0.758912 -0.031959016 -0.0885691 -0.07050639 -0.16125233 -0.06255973 0.49353704
-0.08557364 0.23755097 -1.1275871 -0.17224449 0.1725885 -0.18401913 0.29906943 0.14100364
00000000: c90c 0e3c 963f 38bf 3fdd 04ba aa74 1bbd
00000010: 53ba 30bc b627 4f3b 5f10 5dbc daf7 dabd
00000020: d852 acbd baa1 b6bb 7565 3d3e 2cb6 70be
00000030: cf3e 46bd d3bd 5bbd 48df 20bd eaa0 a53d
00000040: 5aa5 dcbd a630 003e e457 363e b869 9b3d
00000050: 96e4 17bd 1d52 f6be df9a 47bd 62f8 3bbe
00000060: 7b16 263e 995c 623e 6ab6 a53e 1ba4 0ebd
00000070: f5d9 1b3f fae2 f33d 00cd e23d 6ecc 9fbb
00000080: c7c4 4d3d 4c26 d6bd bf96 b8bc b91c 9cbc
00000090: e9c8 e53d 85f5 bd3e 29ff 58bd 81c8 6b3f
000000a0: e08f 2b3e 3659 09be 2f54 17be d8b7 9fbd
000000b0: 0042 2f3e 2913 253d 992d abbd 7978 01bf
000000c0: b905 7bbd 4351 32bd 0216 a43d 08d7 0b3e
000000d0: bb40 afbc 3c34 5bbe 0cd5 b3be ee40 93bd
000000e0: 7c29 4f3d cce9 403d 87d2 c83d 1b54 f9bc
000000f0: 3fc9 483c 4fb4 c4bd 0449 91bc 754c c03c
00000100: e515 cbbd 8176 6e3d 526a 6c3e f2af 66bd
00000110: fb87 1bbe acf2 9f3d 10f3 cbbd 7bcd 0b3d
00000120: 83f4 d2bc 2561 a63d 7099 013d 7f5f 9cbe
00000130: 6d71 71bd 4d88 e23e 65e9 5cbe 56aa 1e3c
00000140: a2aa 833d c378 10be d0a3 903d f7cd 85bc
00000150: 76c1 2b3b 7bd4 ae3d f81d fb3d e3af 50be
00000160: a717 ebbd be2c cebd 30c6 5abc 3405 2dbd
00000170: b4a3 9ebe 3738 0dbd 5c3a 143e 7931 6c3e
00000180: ea39 b6bd 0a32 a6bd a182 703e 498a 19bd
00000190: d3eb 82bd de37 b53c 0c99 323d 3ec5 1ebc
000001a0: b6e2 9cbd 1331 893e 4448 d8bd 7747 723c
000001b0: a96d 523c 37e0 ddbc 44e2 a23b bcda d73e
000001c0: 0cd9 df3c 0f48 42bf 75e7 02bd b763 b5bd
000001d0: a765 90bd 551f 25be 511f 80bd e3b0 fc3e
000001e0: 3c41 afbd 9040 733e c654 90bf dc60 30be
000001f0: 0abb 303e 836f 3cbe a11f 993e 4263 103e

network.2.weight f4 [128, 256]
-0.048543792 0.06051442 -0.06749888 0.021689223 0.0018821518 -0.045944758 0.035044394 -0.023838934
0.027519822 0.029582815 0.027004637 0.05228769 0.012333232 -0.037629712 -0.02938842 0.028162656
-0.009596222 -0.021642638 -0.08393888 0.04372647 -0.0742055 -0.04246658 -0.058869503 0.044785768
-0.03431144 -0.011651762 0.0159488 0.02619155 -0.022859378 -0.022255076 -0.07253832 -0.017815424
-0.051610857 0.021999236 -0.063762054 -0.059907127 -0.010365983 0.013890775 -0.08070409 0.036536362
-0.045368798 0.01764249 0.03926783 0.0281979 -0.03290571 0.010747991 -0.015167094 -0.005900952
-0.08425568 -0.033253238 -0.045320995 -0.09768583 0.043151803 -0.030408356 0.0030832547 -0.057644643
-0.011000004 0.017651655 -0.035544597 -0.0054645943 0.043800473 -0.071998075 -0.010050409 0.0076006944
-0.04681717 -0.045906655 -0.02938559 -0.085659765 0.022304583 -0.0105302725 -0.006547158 0.0001484864
-0.08417205 -0.018124104 0.008921802 0.01026948 0.04681275 -0.029900756 -0.042496316 -0.05347557
-0.051228017 0.005919237 0.06221158 -0.013252896 -0.002682368 -0.077807344 0.05592721 0.041754138
-0.040622663 -0.0041011376 -0.066653855 -0.014424728 -0.03413369 -0.019297507 -0.04478409 -0.015630104
0.0023121138 -0.06429362 0.03060574 -0.04030198 -0.013833009 0.044522 0.0043373364 -0.0196528
0.021932514 0.00976468 -0.020214293 0.0022458946 0.009348606 0.018068625 -0.058369398 0.016266657
-0.06712315 0.036361046 -0.045524362 -0.02525192 -0.019158676 -0.05765906 -0.06356733 0.04083451
0.033196937 -0.011787384 -0.038459543 -0.057862736 0.019922506 -0.009887533 0.02745832 -0.014359564
-0.022747705 -0.059456374 -0.008304054 -0.012804108 -0.06205469 -0.031658832 0.037890106 -0.027623659
-0.06085112 -0.02745969 0.014544026 -0.034139883 0.031076474 -0.022938836 0.018649321 0.004771549
-0.010043738 -0.046760198 -0.03507443 -0.028990638 -0.047848273 0.0051718103 0.036321994 -0.06464412
-0.011346613 -0.023316659 0.012478729 0.011293346 -0.055117603 0.020139486 -0.036582034 -0.03152919
-0.08201247 -0.054747503 -0.03922251 0.007632331 -0.041862983 0.03246072 -0.023469428 0.05632716
-0.009165507 -0.019864406 0.01398759 0.041933954 -0.007702016 -0.031145835 -0.05003328 0.005547879
-0.0058951154 -0.020377696 0.025393179 -0.015659356 -0.059322387 -0.036963884 0.026057718 -0.08680916
-0.019562006 0.015042267 -0.040110763 0.039397433 -0.0401304 0.0029552523 -0.028670797 -0.05206889
-0.08250072 -0.02891116 0.014510918 0.028118653 -0.0024133078 -0.012244568 0.021174842 -0.04281822
-0.010992447 -0.021704316 -0.016532684 0.010962023 0.03758406 -0.08920471 -0.06805497 -0.018084237
-0.04165155 0.028932663 -0.04611788 -0.018343098 0.016582066 -0.036477692 0.042248562 -0.0371717
0.038214695 -0.056312013 0.031504124 -0.0010041974 -0.023472607 -0.009650557 0.027226636 -0.030431785
0.03790364 0.04069016 0.053652745 -0.06890579 0.018007929 -0.05065437 0.022374647 0.031233657
0.017288823 0.03133188 0.013113113 0.030599412 0.018490285 0.017857853 0.003222685 -0.028634157
-0.026253268 -0.00090629444 -0.013176942 0.0013082409 0.009538637 0.019657645 -0.06292421 -0.0030439072
-0.03607814 0.021870662 -0.07563502 0.019628914 -0.027271925 0.022104457 -0.059614807 -0.05155979
00000000: dbd5 46bd f8dd 773d da3c 8abd 99ad b13c
00000010: 89b2 f63a 9230 3cbd b68a 0f3d de49 c3bc
00000020: 4071 e13c a957 f23c d438 dd3c 9e2b 563d
00000030: 5311 4a3c 9d21 1abd fcbf f0bc 5fb5 e63c
00000040: 7939 1dbc e74b b1bc 26e8 abbd 871a 333d
00000050: 0ef9 97bd 70f1 2dbd 2621 71bd 4871 373d
00000060: 278a 0cbd 08e7 3ebc 0fa7 823c a98f d63c
00000070: 9743 bbbc 4750 b6bc f98e 94bd a7f1 91bc
00000080: e865 53bd be37 b43c ae95 82bd 2d61 75bd
00000090: 15d6 29bc 2296 633c 3048 a5bd 27a7 153d
000000a0: a2d4 39bd fc86 903c 4ed7 203d 48ff e63c
000000b0: 23c8 06bd 5718 303c 677f 78bc c65c c1bb
000000c0: 3e8e acbd 8c34 08bd 82a2 39bd 820f c8bd
000000d0: f2bf 303d f21a f9bc 6e10 4a3b ca1c 6cbd
000000e0: 5c39 34bc 349a 903c 3697 11bd 5710 b3bb
000000f0: 2068 333d ba73 93bd 78aa 24bc 3f0f f93b
00000100: 5cc3 3fbd 9e08 3cbd 0dba f0bc 636e afbd
00000110: 1ab8 b63c 2a87 2cbc 8b89 d6bb 04b3 1b39
00000120: 6562 acbd 0079 94bc c02c 123c 5241 283c
00000130: babe 3f3d 6ef2 f4bc 9e10 2ebd 3309 5bbd
00000140: 78d4 51bd 29f6 c13b 92d1 7e3d ad22 59bc
00000150: abca 2fbb 7559 9fbd ee13 653d 6306 2b3d
00000160: f363 26bd d662 86bb d181 88bd b255 6cbc
00000170: c5cf 0bbd ce15 9ebc 866f 37bd b40a 80bc
00000180: d586 173b 60ac 83bd e4b8 fa3c b013 25bd
00000190: d8a3 62bc b35c 363d 3720 8e3b e9fe a0bc
000001a0: d1ab b33c 09fc 1f3c 7298 a5bc dc2f 133b
000001b0: e52a 193c a704 943c c014 6fbd a741 853c
000001c0: dd77 89bd 52ef 143d c177 3abd 1ddd cebc
000001d0: a8f2 9cbc e82b 6cbd 972f 82bd 1642 273d
000001e0: 83f9 073d df1f 41bc c187 1dbd 7a01 6dbd
000001f0: 8634 a33c 52ff 21bc 45f0 e03c 6044 6bbc
00000200: 6559 babc 8788 73bd ba0d 08bc 52c8 51bc
00000210: 0f2d 7ebd b1ac 01bd a832 1b3d 034b e2bc
00000220: 063f 79bd 25f3 e0bc 114a 6e3c 43d6 0bbd
00000230: 1794 fe3c 3aea bbbc 76c6 983c a75a 9c3b
00000240: 7e8e 24bc 9f87 3fbd 35aa 0fbd c67d edbc
00000250: 8dfc 43bd 4a78 a93b 5fc6 143d 2364 84bd
00000260: 25e7 39bc 9402 bfbc 9573 4c3c ba07 393c
00000270: ffc2 61bd 90fb a43c 0bd7 15bd c024 01bd
00000280: 27f6 a7bd eb3e 60bd c8a7 20bd a218 fa3b
00000290: 8578 2bbd 88f5 043d f542 c0bc 4fb7 663d
000002a0: ec2a 16bc aeba a2bc 342c 653c f0c2 2b3d
000002b0: 3161 fcbb 8d25 ffbc b2ef 4cbd fbca b53b
000002c0: d02b c1bb 20ef a6bc 5b05 d03c 0d48 80bc
000002d0: 08fc 72bd 7167 17bd ff76 d53c 00c9 b1bd
000002e0: 8040 a0bc d773 763c 2f4b 24bd 345f 213d
000002f0: c65f 24bd e8ac 413b 05df eabc 3046 55bd
00000300: 23f6 a8bd 19d7 ecbc 34bf 6d3c 1759 e63c
00000310: 9628 1ebb 719d 48bc dd76 ad3c 2862 2fbd
00000320: aa19 34bc 40cd b1bc 8d6f 87bc 0f9a 333c
00000330: bef1 193d f6b0 b6bd 6760 8bbd 6525 94bc
00000340: d19a 2abd 3104 ed3c 1ae6 3cbd 4444 96bc
00000350: 1dd7 873c a269 15bd d40c 2d3d 5a41 18bd
00000360: 0387 1c3d 6da7 66bd 780a 013d 469f 83ba
00000370: a049 c0bc 5f1d 1ebc 650a df3c 144c f9bc
00000380: d940 1b3d baaa 263d fbc2 5b3d 7b1e 8dbd
00000390: 5d85 933c f57a 4fbd 094b b73c badd ff3c
000003a0: 4aa1 8d3c db55 003d 62d8 563c 9eab fa3c
000003b0: f078 973c a24a 923c af33 533b 2e92 eabc
000003c0: 1811 d7bc 6494 6dba 1ae4 57bc 4879 ab3a
000003d0: f147 1c3c 1209 a13c 69de 80bd 4a7c 47bb
000003e0: acc6 13bd 1a2a b33c 89e6 9abd d1cc a03c
000003f0: 5f69 dfbc 6814 b53c a82e 74bd 5c30 53bd

network.4.bias f4 [64]
0.7519143 0.040007304 0.048852343 0.33893436 0.2603249 -0.20048314 -0.11889074 3.0329275
0.27588257 -0.06666824 0.030420113 0.47216734 2.159259 4.618519 1.5415049 0.39085296
2.1073008 0.5524093 0.35020122 0.22818208 1.2406907 -0.0629048 -0.49620655 2.9019067
2.7740493 1.758594 0.16945174 -0.96966517 -0.8644203 -0.09143093 0.3583228 0.19930555
0.46346045 2.731125 4.5908456 -0.95826757 -1.7921226 -0.019934269 0.14459586 0.33614314
0.32894996 0.07466428 0.23576237 -0.10042619 0.03248727 2.6608448 4.956938 0.27592534
3.7237835 0.21603 1.2822776 -0.04733938 -0.06990551 -0.31655794 0.1718834 0.78227526
-0.37315077 4.6866975 -0.045194678 0.031224776 -0.05434393 0.19246498 0.06837826 -0.23782301
00000000: 757d 403f b3de 233d 6519 483d ce88 ad3e
00000010: 4e49 853e 744b 4dbe fd7c f3bd 7c1b 4240
00000020: 7b40 8d3e 5c89 88bd 9a33 f93c ebbf f13e
00000030: 4d31 0a40 e8ca 9340 0850 c53f e11d c83e
00000040: 04de 0640 b26a 0d3f 934d b33e 90a8 693e
00000050: f4ce 9e3f 3bd4 80bd c90e febe d7b8 3940
00000060: 068a 3140 9c19 e13f c284 2d3e fa3b 78bf
00000070: a64a 5dbf 2440 bbbd 1676 b73e c116 4c3e
00000080: b04a ed3e c1ca 2e40 35e8 9240 0651 75bf
00000090: 4664 e5bf 314d a3bc f010 143e f41a ac3e
000000a0: 216c a83e 96e9 983d b16b 713e 3fac cdbd
000000b0: 5f11 053d 484b 2a40 3c9f 9e40 1646 8d3e
000000c0: 7852 6e40 f836 5d3e ac21 a43f f0e6 41bd
000000d0: 9f2a 8fbd e213 a2be 3402 303e 3143 483f
000000e0: 9e0d bfbe 6df9 9540 0e1e 39bd 1acb ff3c
000000f0: be97 5ebd 8a15 453e e709 8c3d e087 73be

network.4.weight f4 [64, 128]
-0.058535397 -0.40133682 0.14340751 -0.15081516 -0.4476026 -0.67193216 -0.010861989 0.009044742
0.19451763 0.046476047 0.5580354 -0.12334424 -0.32524905 0.09596343 0.12855858 0.065906234
0.26881132 0.030779967 -0.14347602 -0.089136496 -0.09885811 -1.3400911 -0.122794464 -0.024430037
-0.042223386 0.06647085 0.011789143 -0.36244714 0.40068725 -0.078609794 -0.029884158 0.03506006
0.17353605 -0.17777686 0.116546564 0.13642527 0.22870763 0.4168798 -0.2747554 0.02262669
-0.095582716 -0.8253672 -0.7547879 -0.25266734 -0.83751506 -0.46478918 -0.41975075 -0.102152415
-0.060935456 0.10799627 0.122242846 -0.106490135 -0.39998987 -0.76218385 -0.46799883 -0.010126193
0.061699837 -0.7677172 -0.6412765 -1.6137074 0.14479145 0.033956192 0.28023443 -0.05836636
-0.76320493 -0.06654116 0.114619076 0.057212234 -0.3341679 -1.5519255 -0.11612039 -0.020105224
-0.43587515 -0.075868316 0.21523702 -0.34660524 0.11896429 0.10129616 0.06766745 0.1485397
-0.16159478 -0.27329847 0.05855018 0.04325347 -0.18462084 -0.008175005 0.33626112 0.07014342
-0.0016129288 -0.043263234 -0.060239717 -0.41599151 0.14971207 -0.06488844 -0.030641459 -0.004728162
-0.33485717 0.1405781 0.112212405 -0.072739735 -0.19918849 0.088275015 0.22885607 -0.37172392
-0.031567615 -0.02446551 -0.6961366 -0.0590071 0.040077787 -0.39155227 -0.17904879 0.014107095
-0.26072326 0.34180677 -0.06697886 0.051664047 -0.06347318 0.02550138 -0.08201269 0.04198252
-0.057929296 -0.544676 -0.8801354 0.16922091 0.09960469 0.3152456 -0.06066215 -0.03130383
0.09475832 0.4010155 -0.16769768 -0.27045512 0.1892339 0.15022345 -0.5423062 -0.24269639
-0.051805153 -0.020468472 0.18602191 -1.0360101 0.4488623 0.26116613 0.010361303 0.5580843
0.1946512 0.31691837 -0.63985884 0.62136585 -1.1751692 0.038606316 -0.40299404 -0.6757527
-0.93257755 0.32342717 -0.5786911 -0.4438981 0.18168266 -0.39977273 0.7156328 0.049204603
-0.052579056 -0.38732105 0.23379736 0.07475008 -0.66981816 -0.0076776217 -0.16548 -0.6434714
0.2854159 -0.280141 -0.5721654 0.058952454 0.18646099 -0.4055081 0.32372153 -0.2425319
0.095709465 0.24296683 -0.18462463 0.3707379 0.22969124 -0.0023705626 -0.04320622 0.01644264
-0.10637819 -0.25358424 -0.67660683 0.1350511 -0.0025541119 -0.04647866 0.26401937 -0.47454095
-0.6589073 0.15148968 0.41303512 -0.009139151 -0.28173977 0.10769712 0.13315946 0.36096442
0.3488557 -0.054258946 0.42812818 -0.4749063 0.49985757 -0.19707052 -0.2993081 0.024366833
-0.2346023 -0.09700703 0.44496673 -0.14358944 -1.076739 0.14150986 -0.07275257 -0.6054697
-0.63077825 -0.031184232 0.03158525 0.14622445 -0.5813672 -0.09456956 0.5154499 0.1432601
0.23012991 -0.1607004 0.25503555 0.31676495 -0.4175031 -0.02921641 0.30163053 0.28735235
0.008071142 -0.590259 -0.38890794 -0.018323464 -0.21942516 0.5978117 -0.15942003 -0.37842223
-0.28500873 0.03339252 -0.46256208 -0.0092211375 0.079747684 -0.058617342 -0.023771916 0.25752532
-0.040604666 -0.2629655 -0.5451922 0.06619045 0.015291917 -0.22416064 -0.50253767 -0.034107253
00000000: d0c2 6fbd 057c cdbe 6bd9 123e 4a6f 1abe
00000010: 2b2c e5be bf03 2cbf 7cf6 31bc 6630 143c
00000020: a12f 473e ab5d 3e3d 68db 0e3f e89b fcbd
00000030: 0b87 a6be 7a88 c43d dca4 033e d9f9 863d
00000040: a3a1 893e 4526 fc3c 61eb 12be 328d b6bd
00000050: 1f76 cabd 1b88 abbf aa7b fbbd 8021 c8bc
00000060: 6ef2 2cbd de21 883d 4027 413c ac92 b9be
00000070: e126 cd3e 2cfe a0bd 9fcf f4bc 239b 0f3d
00000080: 6fb3 313e 230b 36be f7af ee3d 11b3 0b3e
00000090: 5532 6a3e 4571 d53e bdac 8cbe 9c5b b93c
000000a0: dfc0 c3bd 444b 53bf c839 41bf 9d5d 81be
000000b0: 6367 56bf d9f8 edbe 92e9 d6be 4935 d1bd
000000c0: 7597 79bd 262d dd3d 755a fa3d 8017 dabd
000000d0: 79cb ccbe 7b1e 43bf 8b9d efbe 55e8 25bc
000000e0: f8b8 7c3d 1d89 44bf b22a 24bf f78d cebf
000000f0: 3644 143e a615 0b3d e37a 8f3e 9011 6fbd
00000100: 6661 43bf bb46 88bd 68bd ea3d 6057 6a3d
00000110: 0e18 abbe 7fa5 c6bf 87d0 edbd b6b3 a4bc
00000120: 072b dfbe d960 9bbd 1867 5c3e 3e76 b1be
00000130: 8da3 f33d 5c74 cf3d 3b95 8a3d cb1a 183e
00000140: 1a79 25be c7ed 8bbe 50d2 6f3d 8d2a 313d
00000150: 3f0d 3dbe 75f0 05bc 6b2a ac3e 5aa7 8f3d
00000160: e968 d3ba ca34 31bd ecbd 76bd d7fc d4be
00000170: 1f4e 193e 3be4 84bd cc03 fbbc b3ee 9abb
00000180: 6672 abbe b5f3 0f3e 9ecf e53d 92f8 94bd
00000190: 11f8 4bbe 88c9 b43d 3f59 6a3e 9952 bebe
000001a0: 0b4d 01bd e56b c8bc 0236 32bf 6eb1 71bd
000001b0: 9b28 243d 8a79 c8be 9158 37be 7221 673c
000001c0: 857d 85be 4c01 af3e 362c 89bd ae9d 533d
000001d0: 3afe 81bd 45e8 d03c 45f6 a7bd ddf5 2b3d
000001e0: 4547 6dbd e36f 0bbf 8e50 61bf 3f48 2d3e
000001f0: 8bfd cb3d df67 a13e e078 78bd 7238 00bd
00000200: a610 c23d e751 cd3e f1b8 2bbe 1879 8abe
00000210: 88c6 413e 2dd4 193e 94d4 0abf 6785 78be
00000220: a431 54bd 7fad a7bc 877c 3e3e fb9b 84bf
00000230: 48d1 e53e 91b7 853e 74c2 293c 9dde 0e3f
00000240: a552 473e 2043 a23e cacd 23bf d511 1f3f
00000250: f26b 96bf a821 1e3d 3c55 cebe 21fe 2cbf
00000260: 67bd 6ebf 3f98 a53e 1a25 14bf 9d46 e3be
00000270: 050b 3a3e 03af ccbe b633 373f c48a 493d
00000280: 235d 57bd f24e c6be 9368 6f3e 9216 993d
00000290: 3479 2bbf 8f94 fbbb 9773 29be 8bba 24bf
000002a0: 0822 923e a46e 8fbe 6f79 12bf 2178 713d
000002b0: a1ef 3e3e c29e cfbe d4be a53e 485a 78be
000002c0: 5303 c43d 4ccc 783e 3d0e 3dbe 5cd1 bd3e
000002d0: 2e34 6b3e 715b 1bbb 01f9 30bd b7b2 863c
000002e0: cfdc d9bd cbd5 81be 1b36 2dbf d64a 0a3e
000002f0: e362 27bb 6860 3ebd 8c2d 873e 08f7 f2be
00000300: 26ae 28bf 1c20 1b3e 5779 d33e 61bc 15bc
00000310: 3240 90be 4f90 dc3d f45a 083e 54d0 b83e
00000320: 379d b23e a13e 5ebd 9e33 db3e eb26 f3be
00000330: 55ed ff3e dbcc 49be e93e 99be f49c c73c
00000340: 963b 70be 9fab c6bd aed2 e33e 1c09 13be
00000350: 95d2 89bf f6e7 103e 4dff 94bd 1000 1bbf
00000360: af7a 21bf 1376 ffbc 895f 013d ddbb 153e
00000370: 7bd4 14bf afad c1bd 86f4 033f c7b2 123e
00000380: 2da7 6b3e a58e 24be 0594 823e 042f a23e
00000390: f7c2 d5be 4157 efbc 516f 9a3e d91f 933e
000003a0: d33c 043c 371b 17bf f11e c7be 171b 96bc
000003b0: fdb0 60be 300a 193f 013f 23be 8fc0 c1be
000003c0: aaec 91be 98c6 083d f0d4 ecbe 4114 17bc
000003d0: c152 a33d bd18 70bd 52bd c2bc 5cda 833e
000003e0: 1451 26bd 6aa3 86be b791 0bbf dc8e 873d
000003f0: f38a 7a3c 5e8a 65be 4fa6 00bf 0cb4 0bbd

network.6.bias f4 [14]
-0.8421464 -1.5962505 -1.6284207 -1.3793418 -1.3340348 -1.2563566 -0.9591348 -1.1453518
-0.90251184 -0.9290459 -0.83721864 -0.47976884 -0.14224397 1.2336484
00000000: e896 57bf f051 ccbf 1770 d0bf 468e b0bf
00000010: a7c1 aabf 4bd0 a0bf dc89 75bf e39a 92bf
00000020: 040b 67bf f4d5 6dbf f653 56bf 43a4 f5be
00000030: 67a8 11be 31e8 9d3f

network.6.weight f4 [14, 64]
-0.2057321 0.15093197 -0.020587087 -0.041870967 -0.120118566 -0.35940778 0.13664614 0.024641767
0.056428984 0.020937517 0.30942246 0.35917887 -0.037546802 -0.00029965988 0.13078177 -0.1242815
0.13527453 0.114312954 -0.30055356 -0.23698111 0.7446006 -0.08119835 -0.23457626 0.113875516
0.12742293 -0.10374434 0.22337365 0.34354374 0.6424789 0.20921016 0.011835446 0.434546
0.16797824 0.1784779 -0.086537644 0.68523014 0.14884526 -0.079309076 0.3057879 -0.22254771
0.28974742 0.10940326 -0.14479436 -0.078440614 -0.13505426 0.00041670882 0.11139412 -0.007101955
0.16025749 -0.06416604 0.02424677 0.020731326 -0.2444084 0.20194572 0.25597602 0.29224977
0.16098978 -0.30493778 0.045651536 0.38162977 -0.014040345 -0.0238599 0.10760794 -0.9630418
-0.0254916 -0.01294725 -0.066069126 -0.38596222 0.2752767 -0.10126195 0.02397871 0.030155512
-0.17307563 0.02143142 -0.11838534 -0.34169987 -0.099145316 0.06793859 0.12992431 -0.13020425
-0.12867346 -0.259405 -0.0027165227 -0.026345514 0.48185945 -0.00024305284 0.055855922 0.1873215
-0.13652103 -0.3904912 0.051365808 0.07013161 0.7041754 -0.05713704 0.06482895 0.061948206
0.13559215 0.4149655 -0.024582496 0.56764907 -0.27947912 -0.002598986 0.37473968 0.17354268
-0.08610983 0.19421656 -0.08328524 -0.032338955 0.09698199 -0.13393712 0.04323164 0.15807687
0.059525963 -0.010823876 -0.15779002 -0.14772636 0.04889553 -0.30227825 -0.019616414 0.19226399
0.13414964 -0.27993083 0.18685026 -0.09461758 -0.16690423 -0.07149707 0.1804618 -0.6189151
-0.21007372 0.2342984 -0.13437524 -0.09047252 -0.13772087 0.18567878 0.059780896 -0.25529864
-0.114561066 -0.07472639 -0.042559884 0.30724537 -0.08500375 0.055735864 -0.0057808454 -0.013027531
0.061575014 -0.035975195 -0.17565098 0.023249656 0.5791912 0.05893302 -0.054821473 0.07787401
0.036776017 -0.00020302474 0.06905352 -0.002409228 0.6631758 0.068924345 -0.04519179 -0.0030766178
0.088744655 -0.046386316 0.17621006 0.635442 -0.06471292 0.08144796 0.1706695 -0.06988083
-0.22773676 -0.031450093 -0.03756946 0.03202024 -0.07904475 -0.025582716 0.17045066 -0.08309254
-0.31425214 0.031358067 0.04664349 0.0485602 -0.29391494 0.17116478 0.010356039 0.33683106
0.436658 -0.34116188 0.16687475 -0.0798812 -0.017622598 -0.15341972 0.21644594 -0.653385
-0.42706132 -0.010954094 0.044730663 -0.14613038 0.014329782 0.08993891 0.078342445 -0.27752212
-0.047759604 -0.05870758 0.11552652 0.082165174 0.11014096 -0.01599663 -0.049983963 -0.14000943
0.07495456 -0.0040707947 -0.25514132 -0.07756358 0.6092088 -0.042064995 0.1559513 0.14738849
-0.16769694 -0.026106838 0.30241936 -0.12459396 0.66245496 0.22382739 0.10626436 -0.20033745
-0.036281787 0.23872793 0.07422622 0.62429094 0.008027581 0.077296235 -0.0031796077 -0.2391814
-0.2096625 0.112947844 -0.029780658 0.08665665 0.073645 -0.121662065 0.022973642 0.13234627
-0.03271481 0.09087205 -0.14617217 0.011239236 0.04528027 -0.43034983 0.13051607 0.1925997
0.12300931 -0.08103469 0.19122417 -0.2684145 -0.0110753 0.17530924 0.05624389 -0.63083476
00000000: 70ab 52be e98d 1a3e 40a6 a8bc e480 2bbd
00000010: b900 f6bd 4c04 b8be f7ec 0b3e 88dd c93c
00000020: 1422 673d 2885 ab3c 9f6c 9e3e 4be6 b73e
00000030: adca 19bd ab1b 9db9 a8eb 053e 4d87 febd
00000040: 6885 0a3e e91c ea3d 28e2 99be 2dab 72be
00000050: 259e 3e3f 524b a6bd c234 70be 9137 e93d
00000060: 287b 023e ea77 d4bd 10bc 643e f7e4 af3e
00000070: 7f79 243f 303b 563e 75e9 413c d07c de3e
00000080: 7d02 2c3e e9c2 363e a63a b1bd 3e6b 2f3f
00000090: e46a 183e cc6c a2bd 3b90 9c3e 8ce3 63be
000000a0: c659 943e d10e e03d f944 14be 79a5 a0bd
000000b0: aa4b 0abe b679 da39 9a22 e43d 84b7 e8bb
000000c0: 8a1a 243e 7c69 83bd 2aa1 c63c bed4 a93c
000000d0: 3246 7abe dcca 4e3e 4a0f 833e c3a1 953e
000000e0: 81da 243e ce20 9cbe 1bfd 3a3d fa64 c33e
000000f0: 7a09 66bc d675 c3bc 8d61 dc3d e889 76bf
00000100: c3d3 d0bc b420 54bc 404f 87bd d79c c5be
00000110: 11f1 8c3e 6d62 cfbd 006f c43c b108 f73c
00000120: bd3a 31be f290 af3c 0374 f2bd 49f3 aebe
00000130: b30c cbbd 6323 8b3d e10a 053e 4354 05be
00000140: fac2 03be bbd0 84be b007 32bb 8cd2 d7bc
00000150: 48b6 f63e 00dc 7eb9 2ec9 643d 35d1 3f3e
00000160: 2bcc 0bbe 76ee c7be f464 523d 29a1 8f3d
00000170: d744 343f 8708 6abd 0ac5 843d 67bd 7d3d
00000180: abd8 0a3e 5c76 d43e 3b61 c9bc 7351 113f
00000190: e317 8fbe c053 2abb e1dd bf3e 2cb5 313e
000001a0: 5a5a b0bd b5e0 463e 7491 aabd da75 04bd
000001b0: 7e9e c63d d026 09be a913 313d e7de 213e
000001c0: 7fd1 733d a056 31bc b593 21be 9445 17be
000001d0: ae46 483d 37c4 9abe 9ab2 a0bc dae0 443e
000001e0: 865e 093e 1853 8fbe ad55 3f3e ddc6 c1bd
000001f0: f1e8 2abe 0e6d 92bd faca 383e 3871 1ebf
00000200: 911d 57be ebeb 6f3e aa99 09be a849 b9bd
00000210: b306 0dbe 9422 3e3e d0dc 743d 81b6 82be
00000220: fe9e eabd 260a 99bd 4653 2ebd 444f 9d3e
00000230: 7216 aebd 4a4b 643d 3f6d bdbb 6d71 55bc
00000240: 1536 7c3d ba5a 13bd dadd 33be 1076 be3c
00000250: e045 143f c063 713d 7b8c 60bd 697c 9f3d
00000260: 73a2 163d 0ae3 54b9 ef6b 8d3d 23e4 1dbb
00000270: e4c5 293f 3528 8d3d 071b 39bd 15a1 49bb
00000280: c2bf b53d 94ff 3dbd 6970 343e 54ac 223f
00000290: 3588 84bd 30ce a63d fcc3 2e3e ae1d 8fbd
000002a0: d333 69be d0d1 00bd 6fe2 19bd a827 033d
000002b0: 37e2 a1bd d892 d1bc 9e8a 2e3e 6c2c aabd
000002c0: a8e5 a0be 5171 003d 3f0d 3f3d 0fe7 463d
000002d0: 057c 96be d245 2f3e 60ac 293c 1f75 ac3e
000002e0: a391 df3e c5ac aebe 37e1 2a3e c198 a3bd
000002f0: 445d 90bc 0f1a 1dbe 01a4 5d3e 3d44 27bf
00000300: c8a7 dabe cd78 33bc 8037 373d 34a3 15be
00000310: 76c7 6a3c e431 b83d 0172 a03d 6117 8ebe
00000320: 939f 43bd 5c77 70bd 2b99 ec3d 3746 a83d
00000330: 9591 e13d 5d0b 83bc fcbb 4cbd a25e 0fbe
00000340: c781 993d 4d64 85bb e2a1 82be a7d9 9ebd
00000350: 1cf5 1b3f 584c 2cbd b3b1 1f3e 02ed 163e
00000360: bfb8 2bbe 02de d5bc b6d6 9a3e 1e2b ffbd
00000370: a696 293f 0233 653e 21a1 d93d 4325 4dbe
00000380: 369c 14bd 1875 743e eb03 983d 88d1 1f3f
00000390: 1d86 033c 7d4d 9e3d f760 50bb f8eb 74be
000003a0: c4b1 56be 3351 e73d 91f6 f3bc 0b79 b13d
000003b0: 31d3 963d f629 f9bd 3833 bc3c c885 073e
000003c0: f7ff 05bd 201b ba3d 28ae 15be c624 383c
000003d0: ce77 393d d056 dcbe 01a6 053e db38 453e
000003e0: 4eec fb3d 84f5 a5bd 45d0 433e a06d 89be
000003f0: 2d75 35bc 4484 333e fe5f 663d 637e 21bf
